AI_lab/lab_7_reinforcement_learning/saved_models/FrozenLake/QAgent/run-2024-06-04_13-24-43/model_best.npy (npy, 928 bytes, 1 tensors)

array f8 [25, 4]
0.0 0.0 0.0 0.0 290.0146177073167 180.5980135657216 182.540635688167 882.8264054530413
165.5730795679898 156.8727869276106 55.907728466342775 710.2111443203933 23.540095984808207 13.806562742174576 109.10276125551735 0.0
24.596743852946172 34.71202692430152 24.75322749173265 -0.006120499999999991 0.0 0.0 0.0 0.0
500.3738955994057 -3.219519278923407 16.423683666525665 -39.50098123068892 531.1901137066966 103.6313960211137 19.757462312837994 -0.9997363778493122
24.667104624901196 7.245346156853861 60.88782196842459 -0.1903639572545 44.7142881876265 10.771173929804666 31.29283682553371 0.0
-335.3962893208884 12.757903406859503 -92.24391606504118 -97.93527291483866 139.1745016928907 68.44732391853628 311.94934534575015 -13.127457167156152
397.2008916891919 17.745150529427654 16.614785516435443 -7.041543934788575 28.908776998414375 -211.00780857257206 -63.09904431530593 -64.72841664543921
25.936921563595327 -2.393510337243213 -0.3013517890679663 -0.1324665561371152 -23.87049787034027 -6.633850682436259 160.7622805271487 -25.16944665873276
235.9805964387151 34.30588720186715 23.253998575426536 -17.97373955672592 -18.528919075432295 -63.59149224955894 -470.9566766324025 111.45463337145988
0.0 0.0 0.0 0.0 -20.29729883514503 -28.279003528276185 -25.94764169348211 -29.849505
15.868759600809666 21.816111811119352 139.82401785886964 -24.595870886372303 171.60428342965358 12.246305018267472 -16.278470446550642 -23.29005440374712
-83.77298575365144 -90.51650597786325 -527.024291444728 34.66501320884056 0.0 0.0 0.0 0.0
-40.91306392414211 -48.3246505881873 -50.38727281878299 -49.34962336046505
00000000: 0000 0000 0000 0000 0000 0000 0000 0000
00000010: 0000 0000 0000 0000 0000 0000 0000 0000
00000020: e2ed c6df 3b20 7240 d66a 58ed 2293 6640
00000030: 49f7 36e3 4cd1 6640 6350 767a 9c96 8b40
00000040: b450 f6aa 56b2 6440 d8ce d9de ed9b 6340
00000050: 944b 4672 30f4 4b40 9af6 6e6c b031 8640
00000060: c173 ffba 438a 3740 af9f afca f59c 2b40
00000070: 8cef f1a3 9346 5b40 0000 0000 0000 0000
00000080: 2b7e 8434 c498 3840 8ddf c0b2 235b 4140
00000090: 9970 5384 d3c0 3840 15d9 5c35 cf11 79bf
000000a0: 0000 0000 0000 0000 0000 0000 0000 0000
000000b0: 0000 0000 0000 0000 0000 0000 0000 0000
000000c0: 0eb9 f379 fb45 7f40 508a de52 93c1 09c0
000000d0: bd93 6388 766c 3040 00dc 2827 20c0 43c0
000000e0: 44c6 555a 8599 8040 8160 dbca 68e8 5940
000000f0: 7a97 d50c e9c1 3340 587f ef24 d7fd efbf
00000100: 03f6 625e c7aa 3840 e68b df05 3cfb 1c40
00000110: e886 7726 a471 4e40 5a63 5f9d d85d c8bf
00000120: 31e3 9acb 6d5b 4640 e313 304f d78a 2540
00000130: 53bb ac5a f74a 3f40 0000 0000 0000 0000
00000140: 848f 7833 57f6 74c0 23fa 53ea 0b84 2940
00000150: 8994 2052 9c0f 57c0 4484 ed82 db7b 58c0
00000160: fd01 9384 9565 6140 3e35 80f4 a01c 5140
00000170: b5c9 be84 307f 7340 2827 d910 4241 2ac0
00000180: e131 34da 36d3 7840 267d 622f c2be 3140
00000190: 0b25 6795 629d 3040 6d0e 457e 8a2a 1cc0
000001a0: fa8b ff9b a5e8 3c40 6a7a c3f7 3f60 6ac0
000001b0: fe8b ef7b ad8c 4fc0 8081 d960 9e2e 50c0
000001c0: 228f 7217 daef 3940 bec7 68bf e825 03c0
000001d0: 15d5 a803 5949 d3bf a719 3603 aaf4 c0bf
000001e0: 5f59 ccf2 d8de 37c0 ae71 3e27 1089 1ac0
000001f0: 67cf 219a 6418 6440 76ac 31db 602b 39c0
00000200: 605b c80b 617f 6d40 6624 d44f 2727 4140
00000210: 04b0 f60c 0641 3740 99f5 defe 46f9 31c0
00000220: 5736 933d 6787 32c0 b8d8 9d04 b6cb 4fc0
00000230: 4210 288c 4e6f 7dc0 c985 91b6 18dd 5b40
00000240: 0000 0000 0000 0000 0000 0000 0000 0000
00000250: 0000 0000 0000 0000 0000 0000 0000 0000
00000260: 3816 c6c6 1b4c 34c0 326a 75c6 6c47 3cc0
00000270: ecd4 61a5 98f2 39c0 dac9 e028 79d9 3dc0
00000280: 8720 f30e cebc 2f40 0fa3 22b4 ecd0 3540
00000290: 4865 b35a 5e7a 6140 8a9b 91fe 8a98 38c0
000002a0: 0ffc 334a 5673 6540 5599 fcb0 1b7e 2840
000002b0: 68d6 d4d6 4947 30c0 9827 6201 414a 37c0
000002c0: 3d0d 3d99 78f1 54c0 1dc7 166f 0ea1 56c0
000002d0: 6f85 b6bf 3178 80c0 6ab0 1f27 1f55 4140
000002e0: 0000 0000 0000 0000 0000 0000 0000 0000
000002f0: 0000 0000 0000 0000 0000 0000 0000 0000
00000300: 84ac 5647 df74 44c0 2172 8526 8e29 48c0
00000310: bea6 dd27 9231 49c0 b98e 5175 c0ac 48c0
