AI_lab/lab_7_reinforcement_learning/saved_models/FrozenLake/QAgent/run-2024-06-04_13-24-43/model.npy (npy, 928 bytes, 1 tensors)

array f8 [25, 4]
00000000: 0000 0000 0000 0000 0000 0000 0000 0000
00000010: 0000 0000 0000 0000 0000 0000 0000 0000
00000020: 51fb 3b9b 3f7b 8440 d15c 6eb8 6cfa 7a40
00000030: 98d3 6281 9f43 7f40 74c4 43e8 04b9 8b40
00000040: 136f 75be a030 7840 3db4 5b68 5c0f 7740
00000050: fbcd f887 1bc2 6340 bc88 f42d da56 8640
00000060: ef48 ea22 0117 5240 1960 25ca 853a 4f40
00000070: 20e0 a7c4 6725 5c40 0000 0000 0000 0000
00000080: 496b 2629 17f4 4140 9c1d 1dd5 6f90 4340
00000090: e7ff fe30 1504 4240 15d9 5c35 cf11 79bf
000000a0: 0000 0000 0000 0000 0000 0000 0000 0000
000000b0: 0000 0000 0000 0000 0000 0000 0000 0000
000000c0: 9df3 5350 bb4c 8140 ac2f 78c2 2038 5a40
000000d0: 351a 2f21 7beb 6740 00dc 2827 20c0 43c0
000000e0: e7ec de66 3f58 8140 7fac 2385 9e07 7040
000000f0: ff7c ddb6 5c60 5c40 587f ef24 d7fd efbf
00000100: 8563 409b 7e94 5f40 0487 4f47 c791 4440
00000110: 7540 385a 782f 4e40 5a63 5f9d d85d c8bf
00000120: 19d3 0cef bfa4 4440 4d94 6418 6111 3c40
00000130: c4f9 75b1 76c1 4240 0000 0000 0000 0000
00000140: 9639 a286 da5f 78c0 4550 e281 fdf1 6140
00000150: 94c5 dc02 cfaf 46c0 4484 ed82 db7b 58c0
00000160: 5f95 1550 9c26 7a40 9c65 897c 247e 6a40
00000170: f8c8 80bb 62bd 7540 2827 d910 4241 2ac0
00000180: 95b1 ea71 e3a4 7a40 37c7 7151 72e6 5a40
00000190: 5ed0 a099 a352 4c40 6d0e 457e 8a2a 1cc0
000001a0: 5a42 1353 08d1 4840 6815 b95c 9a47 71c0
000001b0: adec 4d42 259d 46c0 8081 d960 9e2e 50c0
000001c0: 0554 6349 bed7 3c40 880f 4204 b2dd 1dc0
000001d0: 3162 2af2 36a8 0d40 a719 3603 aaf4 c0bf
000001e0: 38e9 6ca2 97a9 3c40 d650 86a1 cba5 4b40
000001f0: 787d 5454 9f3d 6c40 76ac 31db 602b 39c0
00000200: eca5 8f48 b6c5 7340 cdc6 8529 01e7 6440
00000210: f4b7 0edc a0a1 6340 99f5 defe 46f9 31c0
00000220: 938c f0d7 b09f 5140 12a7 12c5 4172 f03f
00000230: bb42 f902 708d 80c0 7d97 f87d d4f5 6940
00000240: 0000 0000 0000 0000 0000 0000 0000 0000
00000250: 0000 0000 0000 0000 0000 0000 0000 0000
00000260: a65b ab0b 61c0 51c0 5acd 4393 1774 50c0
00000270: 832b b303 732a 53c0 db8d 071d 929b 52c0
00000280: 503a 988c 5251 6240 fa4f d5d7 e992 6140
00000290: ac77 1f91 dda2 6840 8a9b 91fe 8a98 38c0
000002a0: faff 56d2 01cf 6d40 15ab 528d b2c1 6140
000002b0: 3601 de65 8cbc 5640 9827 6201 414a 37c0
000002c0: e178 4c7b 0eb8 42c0 911b 5784 3d29 4bc0
000002d0: 993f be66 78e6 81c0 2f3e 757b 2033 6040
000002e0: 0000 0000 0000 0000 0000 0000 0000 0000
000002f0: 0000 0000 0000 0000 0000 0000 0000 0000
00000300: c4ba fc27 28be 53c0 5f4d 54f3 9b6c 55c0
00000310: 1c17 9b31 a27a 53c0 1e0d a377 a1be 55c0
0.0 0.0 0.0 0.0 655.4060578046866 431.6515430747068 500.22644175151936 887.1273961347893
387.0392441355954 368.96006046125314 158.06586073488856 714.8565329651096 72.35944435958275 62.45720793557138 112.58445850748149 0.0
35.906956809768026 39.128412856308586 36.031896709929974 -0.006120499999999991 0.0 0.0 0.0 0.0
553.5914618071289 104.87699949013648 191.35878047179872 -39.50098123068892 555.0309579292342 256.4762011903294 113.50565883283342 -0.9997363778493122
126.32022744453396 41.13889399893927 60.37086036440534 -0.1903639572545 41.287107354414 28.06788780646848 37.51143472919969 0.0
-389.9908510529434 143.56219572259775 -45.37350497989533 -97.93527291483866 418.41316231185004 211.9419539149793 347.8366045981088 -13.127457167156152
426.30552856137484 107.6007274256816 56.6456176791405 -7.041543934788575 49.63306654396429 -276.4751860837773 -45.227699554490165 -64.72841664543921
28.842747294187593 -7.466499392063163 3.7071360511002003 -0.1324665561371152 28.662470008458712 55.295276823600645 225.9256993913839 -25.16944665873276
316.3570027934318 167.21889186981426 157.05088618159027 -17.97373955672592 70.49516867152333 1.0278947542341865 -529.679693171834 207.682188973933
0.0 0.0 0.0 0.0 -71.0059231923502 -65.81393891927056 -76.66326992508952 -74.43079305398662
146.5413268063735 140.59104530012684 197.08954673906317 -24.595870886372303 238.46897236816568 142.053045903646 90.9460692089095 -23.29005440374712
-37.4379419444465 -54.32218984845452 -572.8087897170218 129.5977151193524 0.0 0.0 0.0 0.0
-78.97120093994732 -85.69701846344604 -77.91614952226195 -86.97860518382046
