AI_lab/lab_7_reinforcement_learning/saved_models/FrozenLake/QAgent/run-2024-06-04_13-26-50/model.npy (npy, 928 bytes, 1 tensors)

array f8 [25, 4]
0.0 0.0 0.0 0.0 650.4523087825124 426.22281183594356 534.751350561761 912.0788822219566
403.9857512383787 311.0297404899963 144.56086259405885 717.1555370483123 59.509839306407684 66.87830418683971 125.25633835328198 -0.2965904998877453
28.189662161317845 33.252767682643366 31.436765676497266 -0.2455038005 0.0 0.0 0.0 0.0
516.4326554803716 210.574137270829 404.9488877695495 -29.703505292023372 559.6408301059115 231.60558051341468 101.30140316832939 -0.8605462608333763
128.96018056423773 13.51482911244086 50.5662441088384 -0.1003955 32.507719839959975 22.36761349354836 25.58336642717924 0.0
-331.0338504586121 -53.049189426609914 204.30132300183905 -75.12666349345247 428.53830883933057 222.76141993287035 261.06744077087563 -8.936505241079251
426.8952190286725 36.00867574582426 13.454599262812057 -4.6456462272164725 43.01881291038179 -198.0026675788272 -22.155265108849484 -26.30285867872361
20.542299394635418 -5.222202012018212 2.2498002261752936 -0.09995000000000001 55.59404988254066 53.13791447518528 289.2205085584837 -21.332488573053126
356.3102675182845 182.65226717952635 158.78327938593114 -16.21191277463946 11.765224545340534 -39.75323148340473 -352.21193193236917 247.9516793506555
0.0 0.0 0.0 0.0 -35.31519353215138 -23.737383798698968 -42.12334388508295 -36.380055426261215
153.45056977848017 147.04002302473774 254.2495105550801 -22.353872982692728 296.7871857711311 158.92427647017513 115.92434468195066 -21.532106973724524
-70.45291304252295 -70.28166087745583 -371.8782097352247 215.01627505449062 0.0 0.0 0.0 0.0
-64.16928553647747 -59.36301592714149 -58.43849360908754 -58.57026807764427
00000000: 0000 0000 0000 0000 0000 0000 0000 0000
00000010: 0000 0000 0000 0000 0000 0000 0000 0000
00000020: ad24 1154 9e53 8440 a1c8 24a3 90a3 7a40
00000030: c254 15c4 02b6 8040 519c 008d a180 8c40
00000040: 402d 17a3 c53f 7940 6bfe 29d1 7970 7340
00000050: 0a61 1c96 f211 6240 8b3e 358a 3e69 8640
00000060: 409e 156a 42c1 4d40 a79a c322 36b8 5040
00000070: 9f03 fbd8 6750 5f40 3b9e 54b8 56fb d2bf
00000080: 1926 0cb3 8d30 3c40 3038 01b1 5aa0 4040
00000090: 3292 18e0 cf6f 3f40 8579 1825 ab6c cfbf
000000a0: 0000 0000 0000 0000 0000 0000 0000 0000
000000b0: 0000 0000 0000 0000 0000 0000 0000 0000
000000c0: 0d95 1314 7623 8040 0234 2055 5f52 6a40
000000d0: a21c f1a4 2e4f 7940 a6cd 3dec 18b4 3dc0
000000e0: 75d9 886b 207d 8140 c086 62ea 60f3 6c40
000000f0: acb8 8330 4a53 5940 962e df4f 9889 ebbf
00000100: fd34 97cc b91e 6040 a6ec 71ae 9707 2b40
00000110: bd81 dcaf 7a48 4940 aa62 2afd 84b3 b9bf
00000120: 4814 b6f6 fc40 4040 c85b fcea 1b5e 3640
00000130: b751 8e80 5795 3940 0000 0000 0000 0000
00000140: 194b c7a6 8ab0 74c0 9e4c d1d6 4b86 4ac0
00000150: cdcd 2270 a489 6940 6e7e 3241 1bc8 52c0
00000160: 29c1 bae9 9cc8 7a40 6cc6 558d 5dd8 6b40
00000170: 3f15 c63c 1451 7040 9bef 6d9d 7ddf 21c0
00000180: 7c2e 30d1 52ae 7a40 b44a 6e49 1c01 4240
00000190: 8220 0d3c c1e8 2a40 deb8 da48 2495 12c0
000001a0: 8b6a 2176 6882 4540 507a 51da 15c0 68c0
000001b0: eab7 4474 bf27 36c0 7c6d 7825 884d 3ac0
000001c0: 8799 1422 d48a 3440 fde4 9aec 88e3 14c0
000001d0: 7ba6 cf42 97ff 0140 1236 3cbd 5296 b9bf
000001e0: 36da 98d3 09cc 4b40 6c48 782e a791 4a40
000001f0: cf72 fb33 8713 7240 908e 9bf8 1d55 35c0
00000200: b0c0 12db f644 7640 3c8a 6b5f dfd4 6640
00000210: 9146 ee9f 10d9 6340 5cae 64ea 3f36 30c0
00000220: 0aab f882 cb87 2740 3cc5 a5e3 69e0 43c0
00000230: 0fe8 bc12 6403 76c0 01eb 4028 74fe 6e40
00000240: 0000 0000 0000 0000 0000 0000 0000 0000
00000250: 0000 0000 0000 0000 0000 0000 0000 0000
00000260: 1e40 fc42 58a8 41c0 2703 442f c5bc 37c0
00000270: e34b 80bb c90f 45c0 c93a fda7 a530 42c0
00000280: 6de4 4f11 6b2e 6340 bdca 5dde 4761 6240
00000290: 6d42 8ffd fbc7 6f40 6e9a 776b 975a 36c0
000002a0: 276e 1b50 988c 7240 aa7b 3fac 93dd 6340
000002b0: 6acd 9876 28fb 5c40 d01e a229 3888 35c0
000002c0: 5964 fc86 fc9c 51c0 124f 58bb 0692 51c0
000002d0: 1abd a625 0d3e 77c0 e458 4353 85e0 6a40
000002e0: 0000 0000 0000 0000 0000 0000 0000 0000
000002f0: 0000 0000 0000 0000 0000 0000 0000 0000
00000300: d2b6 0093 d50a 50c0 fa7f 4f4e 77ae 4dc0
00000310: 9b44 ff8e 2038 4dc0 acb7 5b8b fe48 4dc0
