AI_lab/lab_7_reinforcement_learning/saved_models/FrozenLake/QAgent/run-2024-06-04_13-26-50/model_best.npy (npy, 928 bytes, 1 tensors)

array f8 [25, 4]
00000000: 0000 0000 0000 0000 0000 0000 0000 0000
00000010: 0000 0000 0000 0000 0000 0000 0000 0000
00000020: 6245 170c 0318 8040 e5c8 f72f 6d97 7240
00000030: e8a4 a69b 6a96 7840 e5ab 905f fc2a 8c40
00000040: 6d26 6030 7cd3 7540 977b 2acc 5d70 7040
00000050: 9dd2 0f36 8a87 5f40 afa7 7813 717e 8640
00000060: 7f1e 9564 1ea3 4940 91ba 4919 6bb4 4840
00000070: e830 950b 6c18 6040 3b9e 54b8 56fb d2bf
00000080: c834 5b8d c249 3a40 5451 f4f6 721f 3b40
00000090: d6f2 7126 7f3f 3a40 8579 1825 ab6c cfbf
000000a0: 0000 0000 0000 0000 0000 0000 0000 0000
000000b0: 0000 0000 0000 0000 0000 0000 0000 0000
000000c0: e620 3809 7373 7640 2e4b 21cf 3fe3 5b40
000000d0: bc5e af41 c9a4 7a40 a6cd 3dec 18b4 3dc0
000000e0: 1de5 f339 5d17 8140 ca2b f70f 6790 6840
000000f0: 84a2 b289 ab54 5440 962e df4f 9889 ebbf
00000100: 0d2f 012b 8b6f 5140 bd5a f2ba 78d5 1b40
00000110: 9108 f824 d0a9 4440 aa62 2afd 84b3 b9bf
00000120: f1d1 d1af a606 3a40 8ff4 2445 e3c8 3240
00000130: 1973 8a18 a788 3a40 0000 0000 0000 0000
00000140: db3c 08fa 2b6c 71c0 8f75 a468 193d 4fc0
00000150: b7a9 866a 13ee 6140 6e7e 3241 1bc8 52c0
00000160: 34c3 dced 7da4 7540 9ed1 a924 4100 6240
00000170: c52c 230b a941 6740 9bef 6d9d 7ddf 21c0
00000180: 423d 747b d4e0 7940 8dcc 918d aee3 2e40
00000190: cfe2 3847 8daf 2240 deb8 da48 2495 12c0
000001a0: 66bd a682 8ffc e23f 9904 86dc 3cbb 67c0
000001b0: 0e7a 46d0 d281 3bc0 7c6d 7825 884d 3ac0
000001c0: baaa bcda 9f96 3340 5eda 9527 6817 11c0
000001d0: b96a 9f8d 3718 f83f 1236 3cbd 5296 b9bf
000001e0: aa7a f9b3 6c18 1f40 6101 bc3f afa3 3440
000001f0: 7c26 3a3b 0d1e 6a40 908e 9bf8 1d55 35c0
00000200: db0c 85ab 6e57 7140 50c7 e585 d5b3 5740
00000210: 461e b520 9b82 5440 5cae 64ea 3f36 30c0
00000220: 82b3 5f66 c5f4 41c0 deb3 1c3f ba26 4fc0
00000230: 6747 03dd c455 72c0 91e3 ccf6 f224 6740
00000240: 0000 0000 0000 0000 0000 0000 0000 0000
00000250: 0000 0000 0000 0000 0000 0000 0000 0000
00000260: 0372 62c5 3885 39c0 c392 e905 9de6 3dc0
00000270: 5c2b afc2 b1e6 36c0 ae34 0d7d 9ab1 3dc0
00000280: 7755 ee27 2e03 5740 aabc 6131 5efb 5340
00000290: 5c75 91fb a00c 6740 6e9a 776b 975a 36c0
000002a0: 6a62 8964 6195 6b40 8732 6a50 dea4 5440
000002b0: 795e 419f fb03 4540 d01e a229 3888 35c0
000002c0: 2cb5 83d6 d88a 55c0 d0b4 1f13 a366 56c0
000002d0: 8cb0 b422 d650 76c0 9b1f 4695 c43e 5d40
000002e0: 0000 0000 0000 0000 0000 0000 0000 0000
000002f0: 0000 0000 0000 0000 0000 0000 0000 0000
00000300: 8c8a 43b1 7be6 4bc0 fa7f 4f4e 77ae 4dc0
00000310: d62e cbf3 06bb 48c0 acb7 5b8b fe48 4dc0
0.0 0.0 0.0 0.0 515.0014879053163 297.464157073888 393.40102734656693 901.3732291510065
349.2178195720542 263.0228997859462 126.11781074090182 719.8052129198239 51.27436501771171 49.40951839542425 128.7631891168487 -0.2965904998877453
26.28812488056863 27.122847971580384 26.24803390771816 -0.2455038005 0.0 0.0 0.0 0.0
359.21558496403884 111.55076959849677 426.29913490775994 -29.703505292023372 546.9205206922812 196.51258085513683 81.32296984143073 -0.8605462608333763
69.74286913982014 6.9584683618947425 41.326664563284005 -0.1003955 26.025980938649756 18.784717866442005 26.53379968052022 0.0
-278.760736496142 -62.47733791380153 143.43987013150556 -75.12666349345247 346.28074442134243 144.0079520527624 186.05188519353956 -8.936505241079251
414.051875547466 15.444691108749135 9.342874742216194 -4.6456462272164725 0.5933301498206844 -189.8511793725527 -27.50712300987839 -26.30285867872361
19.588376685200934 -4.272858255883504 1.5059123546731554 -0.09995000000000001 7.773852169134139 20.639392836951973 208.93911515576826 -21.332488573053126
277.4645190427088 94.80990741195023 82.0407182472928 -16.21191277463946 -35.912274166802504 -62.302558793082184 -293.36056233673884 185.1546586992013
0.0 0.0 0.0 0.0 -25.520397507223617 -29.900833482289055 -22.901149909749947 -29.693763557170932
92.04969213747778 79.92762407822252 184.39465120706416 -22.353872982692728 220.66813875992676 82.57606897707784 42.03111639682624 -21.532106973724524
-86.16948473798828 -89.60370328995054 -357.0522791917981 116.98074848030085 0.0 0.0 0.0 0.0
-55.80064979360495 -59.36301592714149 -49.461149667940546 -58.57026807764427
