AI_lab/lab_7_reinforcement_learning/saved_models/FrozenLake/QAgent/run-2024-06-04_13-26-30/model_best.npy (npy, 928 bytes, 1 tensors)

array f8 [25, 4]
0	0x0000000000000000	0.0
1	0x0000000000000000	0.0
2	0x0000000000000000	0.0
3	0x0000000000000000	0.0
4	0x407d227576b64782	466.15367766573775
5	0x40722dbd45d44b47	290.8587091725098
6	0x4076d611714fed5c	365.3792584535747
7	0x408c5d59a1653b6f	907.6687648686183
8	0x4073a087c3a26107	314.03314555577566
9	0x406fa250a57910a5	253.07234452863227
10	0x405c284f4ba639c5	112.6298398135469
11	0x4086e223eaba36c0	732.2675375507315
12	0x404e5ae0a96e2c59	60.709981135173344
13	0x4048037e3c272aee	48.02728988564
14	0x405f96069a1efbe0	126.34415295625467
15	0xbfb978d4fdf3b646	-0.0995
16	0x4040e60812a75ed8	33.79712136433017
17	0x4046f1d2233788af	45.88922538959138
18	0x403ee6a0a85e94da	30.900888941851782
19	0xbfc351bb91d5c53c	-0.15093178387500383
20	0x0000000000000000	0.0
21	0x0000000000000000	0.0
22	0x0000000000000000	0.0
23	0x0000000000000000	0.0
24	0x4082db37558e264c	603.4020186524808
25	0x403ccf30ad2b09cd	28.809336493499178
26	0x40507a0e1a080845	65.90711069855122
27	0xc041ca3439fbe007	-35.57971882628049
28	0x4081a107d4c95e25	564.1288238269668
29	0x40661323b6a08c7d	176.5981095443457
30	0x4056bffc1ddc9573	90.99976297894845
31	0xbfe18b0b86ba0a26	-0.5482232695943068
32	0x40457479c5db1053	42.90996621319268
33	0x40368ac19392134a	22.54201624218266
34	0x4054a681557b64b0	82.60164391565445
35	0xbfc367fc5f3a3d47	-0.15161089563160088
36	0x404c5f9ed24aed13	56.747034346184726
37	0x4037323d5389f12b	23.196248265435468
38	0x40419b9a85f44ad0	35.2156531756242
39	0x0000000000000000	0.0
40	0xc0755dd00b1a4121	-341.8632918382228
41	0x40639112b689a512	156.53353430637122
42	0xc0362606f5e81e7e	-22.148543709916787
43	0xc050963b3446c9c6	-66.34736353791149
44	0x4071f6e8fc519ea9	287.43188125498506
45	0x4061d1cab8fb19cf	142.55599640887382
46	0x4077f08f6e52e299	383.03501732232104
47	0xc01c7e38ac0dbff4	-7.123263061846945
48	0x407ba46338f3a47d	442.2742242352759
49	0x4050d7c8b6a4b48f	67.37162557682517
50	0x404aec9aad85e9ce	53.84847039259658
51	0xc005666f1576bdcf	-2.6750165631162655
52	0x4048f84c9e7ddf96	49.93983822961961
53	0xc06aa9d0434999f5	-213.30667271018288
54	0xc04a17845246a5c0	-52.18372562837203
55	0xc0457c7d07cb9281	-42.97256562652638
56	0x40412d9da68caea1	34.35637361401792
57	0xc0020a2b0810439f	-2.2549648885692046
58	0x400e4799721d17fd	3.7849606433037466
59	0xbfc9acaa53820a98	-0.20058182790315437
60	0x4050cf0c27007474	67.23511672062324
61	0x405600893af1c54d	88.00837586985035
62	0x406cba9bfc9b02d7	229.83154135013203
63	0xc033a69fe5b6bfdc	-19.650877339474263
64	0x4072b912cec67336	299.5670917274432
65	0x405ac1f817da0300	107.03076740541655
66	0x4052a7f6a531439e	74.62442903338385
67	0xc02df1c7f78a975e	-14.972228751819497
68	0x400c8fdd9b7a9060	3.570246901204925
69	0xc0537847e0b06347	-77.87938706612941
70	0xc06f95b661b377ab	-252.67851338436353
71	0x406178da435e18a8	139.77664345148264
72	0x0000000000000000	0.0
73	0x0000000000000000	0.0
74	0x0000000000000000	0.0
75	0x0000000000000000	0.0
76	0xc03b129ea755dda9	-27.072733362639756
77	0xc03bce7ff17aefae	-27.806639759553654
78	0xc0402d0a32cfa8d1	-32.35187373294469
79	0xc03de37f38afc9dd	-29.888659995
80	0x406836e5e41b899c	193.71556287172723
81	0x405227d59083bf8d	72.62240994325676
82	0x40543a023f1c0f42	80.90638711681552
83	0xc03544775f9324df	-21.26744649259933
84	0x406b3408f128cc0a	217.6260915562455
85	0x4015092cf8e8c553	5.258960618216707
86	0xc015c5a83b9ac0ae	-5.4430245698169255
87	0xc03488bfa9bdb8cb	-20.534174546068964
88	0xc054a574e9744abb	-82.58526073795922
89	0xc0566897a38951ec	-89.63425529871137
90	0xc06dad30d30ac758	-237.41221000771725
91	0x4048e042e8009626	49.752041816984544
92	0x0000000000000000	0.0
93	0x0000000000000000	0.0
94	0x0000000000000000	0.0
95	0x0000000000000000	0.0
96	0xc0263b50b5f3f001	-11.115850149180917
97	0xc03e36ba4a579959	-30.213780065905073
98	0xc026295115fc1079	-11.080696761149953
99	0xc03409ff36ac6478	-20.039050500000002
