AI_lab/lab_7_reinforcement_learning/saved_models/FrozenLake/QAgent/run-2024-06-04_13-26-30/model.npy (npy, 928 bytes, 1 tensors)

array f8 [25, 4]
0	0x0000000000000000	0.0
1	0x0000000000000000	0.0
2	0x0000000000000000	0.0
3	0x0000000000000000	0.0
4	0x40842d496d1f601f	645.6608526660165
5	0x407a572bab9338ca	421.44816167362717
6	0x4080073b15fff109	512.9038505549844
7	0x408d0867a106cc5b	929.0506001025309
8	0x407d8b5325533ba2	472.7077992678916
9	0x407670d63c583b5c	359.0523036428983
10	0x40686e562eddd3da	195.44802039457028
11	0x4086bbabb5ec55a0	727.4588430846816
12	0x4055d08d3ba7f19f	87.2586201801373
13	0x40576cbcafebbab1	93.69901655216633
14	0x40620a7d1f98b51d	144.32777385545424
15	0xbfb978d4fdf3b646	-0.0995
16	0x40430203dd928728	38.01574296621976
17	0x4048859ad7f29e8d	49.04378795000694
18	0x4041d9b8bcdab217	35.70095024755954
19	0xbfc351bb91d5c53c	-0.15093178387500383
20	0x0000000000000000	0.0
21	0x0000000000000000	0.0
22	0x0000000000000000	0.0
23	0x0000000000000000	0.0
24	0x408440895ea997f2	648.0670750855918
25	0x405c95d80b3fd99e	114.34131127581938
26	0x40698f54dff3e80e	204.47911069524747
27	0xc041ca3439fbe007	-35.57971882628049
28	0x408253742a695c6a	586.4317215186431
29	0x40717296041db86a	279.16162501916426
30	0x406235c1a9774b31	145.6798903779941
31	0xbfe18b0b86ba0a26	-0.5482232695943068
32	0x406461b9bc28adb5	163.05392272896793
33	0x40433da4d47dbf26	38.48159271373724
34	0x404e0370b7bcfc41	60.02687737205316
35	0xbfc367fc5f3a3d47	-0.15161089563160088
36	0x4047aeab4d9248f2	47.364602753093905
37	0x403ec6dc938ea05a	30.776803228684322
38	0x4040e2adc4c3f61f	33.77092799728802
39	0x0000000000000000	0.0
40	0xc07885ee946b1bce	-392.3707470115595
41	0x4065262741c63821	169.19229210581491
42	0x40314ba4238cdb8c	17.295473310364784
43	0xc050963b3446c9c6	-66.34736353791149
44	0x407e15da9127d987	481.36586108747764
45	0x406ca0e3e577f7ed	229.0278193801054
46	0x4077139cfcd54627	369.2258270579354
47	0xc01c7e38ac0dbff4	-7.123263061846945
48	0x407bdac25a38f48c	445.67244932411336
49	0x405ec3f37ad90ca5	123.0617358321784
50	0x40535b65dc024f43	77.42809200501965
51	0xc005666f1576bdcf	-2.6750165631162655
52	0x4053bdaa7a5feae2	78.9635301529593
53	0xc0737de1c77476f0	-311.8676218556784
54	0xc04f0b9e9d423f06	-62.09077802405049
55	0xc0457c7d07cb9281	-42.97256562652638
56	0x403d73574e31b45b	29.450550925383464
57	0xc01250254b51d5e0	-4.578267266149368
58	0x4020f78ba2605d95	8.483487200034498
59	0xbfc9acaa53820a98	-0.20058182790315437
60	0x405f52a5063a9963	125.29132228586745
61	0x40625dfbd593007f	146.93699148856464
62	0x40713855df45132a	275.52096487982146
63	0xc033a69fe5b6bfdc	-19.650877339474263
64	0x40762326fed69437	354.1970203763953
65	0x4065342ee6ecd3b5	169.630725348046
66	0x4062796b1f69a774	147.79432650218553
67	0xc02df1c7f78a975e	-14.972228751819497
68	0x403737a74aecca52	23.217396433649192
69	0xc051b2ee98a4fcc5	-70.795812760468
70	0xc0772ea9b1788e5c	-370.91642901508544
71	0x40688d7a546bafa6	196.42118283302733
72	0x0000000000000000	0.0
73	0x0000000000000000	0.0
74	0x0000000000000000	0.0
75	0x0000000000000000	0.0
76	0xc03ae6cc037763b7	-26.90155049958022
77	0xc040611a1cfdb5b8	-32.75860941303421
78	0xc04012c7b205a046	-32.14671921992026
79	0xc03de37f38afc9dd	-29.888659995
80	0x406c5a80f870da0c	226.828243465818
81	0x4061e885efeec751	143.26634976040307
82	0x4062d7696f6311b9	150.73162049626788
83	0xc03544775f9324df	-21.26744649259933
84	0x406f6c6041d110f2	251.3867501338314
85	0x404696fb71b5f605	45.179548467491294
86	0x403fe39a7959a7a0	31.889075836552024
87	0xc03488bfa9bdb8cb	-20.534174546068964
88	0xc0511d818f999ef0	-68.46103277208363
89	0xc056855b0bff5173	-90.08368205960669
90	0xc070435d88307028	-260.21033495827805
91	0x405b5d99dac39920	109.46251553632146
92	0x0000000000000000	0.0
93	0x0000000000000000	0.0
94	0x0000000000000000	0.0
95	0x0000000000000000	0.0
96	0xc043800e398caf54	-39.000434106534755
97	0xc048a6f4deaf9ef3	-49.30434783530463
98	0xc04898b422852704	-49.192997279182265
99	0xc048a58d556aeeb0	-49.2933756610995
