AI_lab/lab_7_reinforcement_learning/saved_models/FrozenLake/QAgent/run-2024-06-04_13-25-12/model_best.npy (npy, 928 bytes, 1 tensors)

array f8 [25, 4]
0.0 0.0 0.0 0.0 782.3642214766776 366.962143273669 313.40138344732753 0.0
543.3337581789993 270.5809721262156 269.4662556868786 0.0 371.3887894767762 185.7693448168363 196.19391236925256 0.0
111.1736927155311 201.34298274183848 96.8363773092677 0.0 0.0 0.0 0.0 0.0
484.7660181472249 -72.41571096362254 -86.42986473285919 -190.95 439.48159965949776 166.4799416494176 125.47874374702738 -0.5
264.65571531104723 95.12030898342023 93.47548740118559 0.0 191.57220436441688 85.89570852403648 105.42520621913734 0.0
-419.19776084384887 99.1720157916884 -262.52620262425285 -281.66367085803404 48.40116176770958 92.57690255105463 371.5603931525534 -4.021440320908142
393.42147434277865 15.31204624932392 96.49023660240175 -1.161750286805563 153.25536123279764 -793.4138906821956 -155.7068667408649 -100.5
146.72628718207412 -17.451790072672303 32.588160537968875 0.0 -22.31082788200913 -8.02371055787392 231.32817475474405 -24.870901757825514
328.2828402645953 37.326004307515134 15.401189289116466 -37.93404048045477 -228.0341635466771 -224.79372951541114 -726.066122910676 242.70010552287516
0.0 0.0 0.0 0.0 -3.4210676174279406 -212.36335543169034 -218.25820687824316 -254.00622498193553
65.47647069977413 77.68808111832745 249.0509390197961 -24.15908087252596 268.33559968573314 40.15925951317797 32.927237492272674 -35.85473283167924
-284.4447024102884 -199.43758199579943 -835.5186480076741 140.1970869951995 0.0 0.0 0.0 0.0
-157.13633810663157 -330.81120538371084 -302.96954701985624 -345.6195
00000000: 0000 0000 0000 0000 0000 0000 0000 0000
00000010: 0000 0000 0000 0000 0000 0000 0000 0000
00000020: a616 f3ec e972 8840 9967 58f0 64ef 7640
00000030: d7b6 0c11 6c96 7340 0000 0000 0000 0000
00000040: 997c 6889 abfa 8040 bd9f 6da9 4be9 7040
00000050: 7beb 85c8 75d7 7040 0000 0000 0000 0000
00000060: 867c 507b 3836 7740 1775 0579 9e38 6740
00000070: 5987 b687 3486 6840 0000 0000 0000 0000
00000080: 9c30 0dc8 1dcb 5b40 3d69 f1b6 f92a 6940
00000090: f69a b134 8735 5840 0000 0000 0000 0000
000000a0: 0000 0000 0000 0000 0000 0000 0000 0000
000000b0: 0000 0000 0000 0000 0000 0000 0000 0000
000000c0: 93a7 3e9c 414c 7e40 3d56 2802 9b1a 52c0
000000d0: 6055 5ee7 829b 55c0 6666 6666 66de 67c0
000000e0: ec34 d8a1 b477 7b40 9507 97ae 5bcf 6440
000000f0: 6a29 d0bc a35e 5f40 0000 0000 0000 e0bf
00000100: f386 56cf 7d8a 7040 1d4d 7324 b3c7 5740
00000110: 2370 b562 6e5e 5740 0000 0000 0000 0000
00000120: 91f9 867f 4ff2 6740 0c5f d849 5379 5540
00000130: 0b50 2594 365b 5a40 0000 0000 0000 0000
00000140: 2a4c 4607 2a33 7ac0 9fec 854e 02cb 5840
00000150: c463 7153 6b68 70c0 0869 5565 9e9a 71c0
00000160: ee5b d044 5933 4840 8d70 adf8 eb24 5740
00000170: e871 cf5e f738 7740 0177 9473 f415 10c0
00000180: 6665 e15b be96 7840 145f a786 c49f 2e40
00000190: 88a7 5709 601f 5840 1c2d ff77 8796 f2bf
000001a0: 07f1 51eb 2b28 6340 3201 eba5 4fcb 88c0
000001b0: a3d4 ffa6 9e76 63c0 0000 0000 0020 59c0
000001c0: 65d0 9dbe 3d57 6240 f6c8 a283 a873 31c0
000001d0: e2af 31d8 484b 4040 0000 0000 0000 0000
000001e0: 06ea 836a 924f 36c0 dd46 4dca 230c 20c0
000001f0: f4df 5768 80ea 6c40 b6e3 e76a f3de 38c0
00000200: dc66 8383 8684 7440 fa90 5782 baa9 4240
00000210: 7c85 b8ae 68cd 2e40 c058 72a3 8ef7 42c0
00000220: 3176 26de 1781 6cc0 f2d1 703b 6619 6cc0
00000230: f5d6 726b 87b0 86c0 ee8f b243 6756 6e40
00000240: 0000 0000 0000 0000 0000 0000 0000 0000
00000250: 0000 0000 0000 0000 0000 0000 0000 0000
00000260: a80f f2b2 585e 0bc0 e3fd 919b a08b 6ac0
00000270: 0335 123b 4348 6bc0 9aba bbfe 32c0 6fc0
00000280: 0e42 f67e 7e5e 5040 890d 6385 096c 5340
00000290: aa03 de4a a121 6f40 0beb 2886 b928 38c0
000002a0: 59ac c69d 5ec5 7040 9056 a09d 6214 4440
000002b0: d577 d8b7 af76 4040 9e70 abe2 67ed 41c0
000002c0: 424a 4680 1dc7 71c0 dd28 f5ab 00ee 68c0
000002d0: c438 ed30 261c 8ac0 29db 6289 4e86 6140
000002e0: 0000 0000 0000 0000 0000 0000 0000 0000
000002f0: 0000 0000 0000 0000 0000 0000 0000 0000
00000300: cca5 bbe1 5ca4 63c0 0916 7fb2 faac 74c0
00000310: 7863 bc43 83ef 72c0 f4fd d478 e999 75c0
