AI_lab/lab_7_reinforcement_learning/saved_models/FrozenLake/QAgent/run-2024-06-04_13-25-12/model.npy (npy, 928 bytes, 1 tensors)

array f8 [25, 4]
0.0 0.0 0.0 0.0 601.3498245629479 344.9182732528027 497.1708661715869 0.0
411.9828370140865 415.77537323837566 411.0172114858624 0.0 407.16930358062876 391.2186106559846 420.2634649096896 0.0
323.73713624966376 335.7041683139265 327.7724070149682 0.0 0.0 0.0 0.0 0.0
36.77167093742233 23.204058922322176 279.84545217441627 -190.95 357.2056805961124 321.08504005297254 323.34948137913983 -0.5
389.2564579097364 212.71591892772585 296.55878839221646 0.0 333.4599376357034 306.21324483732644 321.9441300295046 0.0
-721.6824225591909 275.7228329626285 -107.47202407305193 -281.66367085803404 203.30156570790712 238.29298764462214 322.6852074020244 -4.021440320908142
344.49038223299203 220.61193830395334 200.05269488492544 -1.161750286805563 6.640207498052689 -754.336756439888 253.64180986398432 -100.5
315.12350855811314 199.20088598484108 230.37318722905667 0.0 153.96893773233953 297.42214317511616 169.81710576913255 -24.870901757825514
312.72592129761665 235.50091402415768 219.7565210710663 -37.93404048045477 16.270693437436933 -15.050738371308517 -719.0650741367081 301.55336934782764
0.0 0.0 0.0 0.0 279.966065620672 -212.36335543169034 -174.18083329474976 -254.00622498193553
218.80939807659598 215.40956634635046 295.9762695521614 -24.15908087252596 299.82960284288885 216.1308197488874 206.0008327386108 -35.85473283167924
-321.51367859425625 21.658591821183684 -757.5767065616977 252.82369639694807 0.0 0.0 0.0 0.0
20.407660227684854 -330.81120538371084 -302.96954701985624 -345.6195
00000000: 0000 0000 0000 0000 0000 0000 0000 0000
00000010: 0000 0000 0000 0000 0000 0000 0000 0000
00000020: 9709 d270 ccca 8240 4459 4b3f b18e 7540
00000030: 56af 2ade bb12 7f40 0000 0000 0000 0000
00000040: cc0c 4eb3 b9bf 7940 46d0 c4ed 67fc 7940
00000050: 500e 8d7f 46b0 7940 0000 0000 0000 0000
00000060: 57de ab77 b572 7940 2d20 e36d 7f73 7840
00000070: 2b2c fb26 3744 7a40 0000 0000 0000 0000
00000080: 0850 614f cb3b 7440 1a73 fe45 44fb 7440
00000090: d547 75c7 5b7c 7440 0000 0000 0000 0000
000000a0: 0000 0000 0000 0000 0000 0000 0000 0000
000000b0: 0000 0000 0000 0000 0000 0000 0000 0000
000000c0: 54c0 ff1c c662 4240 acd4 9d34 3d34 3740
000000d0: 33f7 dbf8 867d 7140 6666 6666 66de 67c0
000000e0: 989b bc77 4a53 7640 e065 f552 5c11 7440
000000f0: 775f c979 9735 7440 0000 0000 0000 e0bf
00000100: e5f1 9b73 1a54 7840 70a5 cfce e896 6a40
00000110: 44df 18cc f088 7240 0000 0000 0000 0000
00000120: bbf8 90e7 5bd7 7440 ba25 6b73 6923 7340
00000130: 4dfe 1628 1b1f 7440 0000 0000 0000 0000
00000140: 386e f599 758d 86c0 5def 4bb9 903b 7140
00000150: b22b 75a4 35de 5ac0 0869 5565 9e9a 71c0
00000160: cca1 206d a669 6940 18f9 9f27 60c9 6d40
00000170: c06a 099c f62a 7440 0177 9473 f415 10c0
00000180: d853 0a9b d887 7540 c754 a3ff 9493 6b40
00000190: 7bed 2ead af01 6940 1c2d ff77 8796 f2bf
000001a0: 4029 eb8d 928f 1a40 4a40 5cad b192 87c0
000001b0: 0302 d7b4 89b4 6f40 0000 0000 0020 59c0
000001c0: f41d 1ce4 f9b1 7340 c0e3 71a8 6de6 6840
000001d0: aa02 5826 f1cb 6c40 0000 0000 0000 0000
000001e0: 4708 b489 013f 6340 a8b5 3319 c196 7240
000001f0: 8379 ffba 253a 6540 b6e3 e76a f3de 38c0
00000200: bc8b a65f 9d8b 7340 aefb d87c 0770 6d40
00000210: de5e ad6b 3578 6b40 c058 72a3 8ef7 42c0
00000220: 9008 452a 4c45 3040 43d8 3a61 fa19 2ec0
00000230: d0c7 9645 8578 86c0 7538 d199 dad8 7240
00000240: 0000 0000 0000 0000 0000 0000 0000 0000
00000250: 0000 0000 0000 0000 0000 0000 0000 0000
00000260: 3869 3901 757f 7140 e3fd 919b a08b 6ac0
00000270: 4ddf e762 c9c5 65c0 9aba bbfe 32c0 6fc0
00000280: 9a8d cb96 e659 6b40 c2e3 e12a 1bed 6a40
00000290: d269 d2cc 9e7f 7240 0beb 2886 b928 38c0
000002a0: 056e a10d 46bd 7240 8ee4 e5ac 2f04 6b40
000002b0: 2f23 61d2 06c0 6940 9e70 abe2 67ed 41c0
000002c0: c6af 0b07 3818 74c0 a265 3d79 99a8 3540
000002d0: 0b6f 5418 9dac 87c0 33d7 8bb8 5b9a 6f40
000002e0: 0000 0000 0000 0000 0000 0000 0000 0000
000002f0: 0000 0000 0000 0000 0000 0000 0000 0000
00000300: 4fc9 b16b 5c68 3440 0916 7fb2 faac 74c0
00000310: 7863 bc43 83ef 72c0 f4fd d478 e999 75c0
