AI_lab/lab_7_reinforcement_learning/saved_models/FrozenLake/QAgent/run-2024-06-01_12-42-09/model_best.npy (npy, 928 bytes, 1 tensors)

array f8 [25, 4]
000000 00 00 00 00 00 00 00 00 00 00 00 00 00 00 00 00
       0.0 0.0
000010 00 00 00 00 00 00 00 00 00 00 00 00 00 00 00 00
       0.0 0.0
000020 34 33 33 33 33 c3 58 40 d8 a3 70 3d 0a d7 ef bf
       99.05000000000001 -0.9950000000000001
000030 a2 e3 d9 b0 be cf da bf 38 eb fc 49 f8 a5 8d 40
       -0.4189297415792287 948.7462348708423
000040 00 00 00 00 00 00 e0 bf f4 78 3b f5 62 ff 1c 40
       -0.5 7.249400932078277
000050 00 00 00 00 00 00 e0 bf 2c 43 ae 79 47 5e 83 40
       -0.5 619.7849000562906
000060 87 c3 76 98 3f a0 67 40 66 66 66 66 66 66 ee bf
       189.00776313015032 -0.95
000070 ca b5 67 54 97 76 0a 40 00 00 00 00 00 00 00 00
       3.3079058260106864 0.0
000080 dd 03 86 0d 88 47 e9 3f 28 9e b7 95 06 25 4b 40
       0.7899818672304907 54.28926345315659
000090 dc 09 08 71 8d 15 16 40 00 00 00 00 00 00 00 00
       5.521047369113571 0.0
0000a0 00 00 00 00 00 00 00 00 00 00 00 00 00 00 00 00
       0.0 0.0
0000b0 00 00 00 00 00 00 00 00 00 00 00 00 00 00 00 00
       0.0 0.0
0000c0 70 9e 11 b3 75 72 85 40 c3 c0 d3 25 06 4b 4e c0
       686.3074704529263 -60.58612511481763
0000d0 16 59 a2 3b b7 19 25 40 cd cc cc cc cc 3c 59 c0
       10.550226081436033 -100.95
0000e0 2d d5 fe a4 2e b8 75 40 60 de 9d da 7e 2f fd bf
       347.51138782066374 -1.8240955867494435
0000f0 af c5 b3 93 11 6b f6 bf ec 46 79 4d a0 8a fd bf
       -1.4011398095720826 -1.8463442827527912
000100 20 72 84 ad 8f 70 a7 3f 00 00 00 00 00 00 e0 bf
       0.045780649119681494 -0.5
000110 92 2a 48 5e 2f c6 3b 40 00 00 00 00 00 00 e0 bf
       27.77416028272507 -0.5
000120 24 2c 0e b8 5a 14 51 40 00 00 00 00 00 00 00 00
       68.31803704628015 0.0
000130 00 00 00 00 00 00 e0 bf 00 00 00 00 00 00 00 00
       -0.5 0.0
000140 48 e1 7a 14 ae 05 71 c0 92 b3 53 ca 3b 68 58 40
       -272.355 97.62864931272478
000150 9a e8 08 d3 29 25 67 c0 cc 24 08 24 b2 1f 66 c0
       -185.16135551204644 -176.9904956969316
000160 de f4 43 50 87 2c 7e 40 be e7 fb b6 0d fc 13 c0
       482.78303553147805 -4.996146067738605
000170 73 a9 8c bf 3c 21 25 40 ff 05 f3 a3 46 02 2a c0
       10.564916597290653 -13.004445193687387
000180 db 95 6d 69 4c 73 6f 40 9b 25 ef a4 90 5a 12 c0
       251.60307761577027 -4.588442399116867
000190 4f 52 85 59 5f 57 04 c0 62 24 43 88 65 b8 00 c0
       -2.542662333851957 -2.090037407444968
0001a0 44 2d 87 cf 9a 0d ee bf cd cc cc cc cc 3c 59 c0
       -0.93916073353595 -100.95
0001b0 d4 e7 4c 72 ed 73 11 40 cd cc cc cc cc 3c 59 c0
       4.363210473960823 -100.95
0001c0 97 4d ec d0 be a6 31 40 00 00 00 00 00 00 00 00
       17.651349122706588 0.0
0001d0 00 00 00 00 00 00 e0 bf 00 00 00 00 00 00 00 00
       -0.5 0.0
0001e0 93 a5 6e 7e cd 41 30 c0 68 56 a9 dc a5 31 f6 3f
       -16.257041837705014 1.387121068915258
0001f0 2c 05 a9 4e 86 8c 6b 40 ec 94 20 3d 3a 1b 30 c0
       220.391394929998 -16.10635740323498
000200 4e 59 ba b8 6a 13 70 40 81 03 27 0e f0 19 27 c0
       257.21355507652777 -11.550659601461804
000210 f6 fd d5 55 a6 c9 28 c0 32 26 b7 33 c2 39 25 c0
       -12.393847162601542 -10.612809768778877
000220 8c 1e c1 b2 26 c1 66 c0 43 09 90 e7 dc 27 66 c0
       -182.03597390860193 -177.24571588642183
000230 48 e1 7a 14 ae 05 71 c0 b1 f3 a6 4f 56 69 60 40
       -272.355 131.29178602798268
000240 00 00 00 00 00 00 00 00 00 00 00 00 00 00 00 00
       0.0 0.0
000250 00 00 00 00 00 00 00 00 00 00 00 00 00 00 00 00
       0.0 0.0
000260 00 00 00 00 00 00 00 00 00 00 00 00 00 00 00 00
       0.0 0.0
000270 00 00 00 00 00 00 00 00 00 00 00 00 00 00 00 00
       0.0 0.0
000280 5e 79 18 a4 18 ae 64 40 da 1b 02 fb 7c ab 30 c0
       165.4405079343805 -16.66987580110058
000290 aa 3e c4 c1 07 39 26 c0 68 3a f7 64 44 0e 31 c0
       -11.111387305455839 -17.055731115683017
0002a0 64 ac ba 84 3b 08 42 c0 ac 7d 7b dc c6 e0 34 c0
       -36.06431635966217 -20.878034382008693
0002b0 6e b4 90 49 a7 91 33 c0 e2 27 4b bc 25 b9 40 40
       -19.56895885260422 33.4464640967342
0002c0 8e 2c 6e 3e af 0d 70 c0 0b 12 03 c1 4c 18 70 c0
       -256.8552841476129 -257.5187387580815
0002d0 8c d6 51 d5 44 90 70 c0 a5 fe e1 f2 49 ba 6f c0
       -265.016805 -253.82152694835273
0002e0 00 00 00 00 00 00 00 00 00 00 00 00 00 00 00 00
       0.0 0.0
0002f0 00 00 00 00 00 00 00 00 00 00 00 00 00 00 00 00
       0.0 0.0
000300 00 00 00 00 00 00 00 00 00 00 00 00 00 00 00 00
       0.0 0.0
000310 00 00 00 00 00 00 00 00 00 00 00 00 00 00 00 00
       0.0 0.0
