AI_lab/lab_7_reinforcement_learning/saved_models/FrozenLake/QAgent/run-2024-06-01_12-42-09/model.npy (npy, 928 bytes, 1 tensors)

array f8 [25, 4]
0.0 0.0 0.0 0.0 228.6164753295488 -0.9950000000000001 67.25140323791163 891.6695637017405
-0.5 7.249400932078277 -0.5 705.071663360279 214.14655143801966 -0.95 3.3079058260106864 0.0
0.7899818672304907 86.75290024334905 5.521047369113571 0.0 0.0 0.0 0.0 0.0
721.2339125571384 -60.58612511481763 51.836097579852336 -100.95 442.0054766166451 -1.8240955867494435 -1.4011398095720826 -1.8463442827527912
21.286119633082585 -0.5 97.00920326862202 -0.5 83.20333865551214 6.538436025218839 -0.5 0.0
-272.355 300.3762069325444 -185.16135551204644 -176.9904956969316 536.0076095677733 20.398330371204715 60.57026117407261 -13.004445193687387
365.3369727409341 -4.588442399116867 -2.542662333851957 -2.090037407444968 8.161774420227239 -100.95 -74.586763739645 -100.95
27.87457605575385 0.0 -0.5 0.0 -16.257041837705014 22.180780461861175 371.21392323160796 -16.10635740323498
438.88859117282266 13.433778922662746 0.6317584679894388 -10.612809768778877 -182.03597390860193 -177.24571588642183 -272.355 195.3448057838036
0.0 0.0 0.0 0.0 2.2195176861557977 0.0 0.0 0.0
301.35502789127173 20.127292049732816 2.150258591800087 -17.055731115683017 -36.06431635966217 -6.550074157423914 -19.56895885260422 206.39046054776426
-256.8552841476129 -257.5187387580815 -265.016805 -83.42300750259167 0.0 0.0 0.0 0.0
0.0 0.0 0.0 0.0
00000000: 0000 0000 0000 0000 0000 0000 0000 0000
00000010: 0000 0000 0000 0000 0000 0000 0000 0000
00000020: 7e66 782a ba93 6c40 d8a3 703d 0ad7 efbf
00000030: 183c 9bfd 16d0 5040 83cc 3644 5bdd 8b40
00000040: 0000 0000 0000 e0bf f478 3bf5 62ff 1c40
00000050: 0000 0000 0000 e0bf c265 3dc4 9208 8640
00000060: 3d2f a48c b0c4 6a40 6666 6666 6666 eebf
00000070: cab5 6754 9776 0a40 0000 0000 0000 0000
00000080: dd03 860d 8847 e93f 6a95 8084 2fb0 5540
00000090: dc09 0871 8d15 1640 0000 0000 0000 0000
000000a0: 0000 0000 0000 0000 0000 0000 0000 0000
000000b0: 0000 0000 0000 0000 0000 0000 0000 0000
000000c0: 44f8 8b0d df89 8640 c3c0 d325 064b 4ec0
000000d0: 82dd d83e 05eb 4940 cdcc cccc cc3c 59c0
000000e0: 2316 a66e 16a0 7b40 60de 9dda 7e2f fdbf
000000f0: afc5 b393 116b f6bf ec46 794d a08a fdbf
00000100: 4ed5 e222 3f49 3540 0000 0000 0000 e0bf
00000110: dd6f 4ec9 9640 5840 0000 0000 0000 e0bf
00000120: fcdb 2280 03cd 5440 6c36 fdc5 5b27 1a40
00000130: 0000 0000 0000 e0bf 0000 0000 0000 0000
00000140: 48e1 7a14 ae05 71c0 e87c 8ff1 04c6 7240
00000150: 9ae8 08d3 2925 67c0 cc24 0824 b21f 66c0
00000160: c9e5 9a95 0fc0 8040 ea53 adfa f865 3440
00000170: 0469 7251 fe48 4e40 ff05 f3a3 4602 2ac0
00000180: 495f 873d 64d5 7640 9b25 efa4 905a 12c0
00000190: 4f52 8559 5f57 04c0 6224 4388 65b8 00c0
000001a0: 2469 c818 d452 2040 cdcc cccc cc3c 59c0
000001b0: 4010 8089 8da5 52c0 cdcc cccc cc3c 59c0
000001c0: d453 6537 e4df 3b40 0000 0000 0000 0000
000001d0: 0000 0000 0000 e0bf 0000 0000 0000 0000
000001e0: 93a5 6e7e cd41 30c0 1473 dba0 472e 3640
000001f0: c639 c43a 6c33 7740 ec94 203d 3a1b 30c0
00000200: 9aac 60ab 376e 7b40 ac0f 5d45 18de 2a40
00000210: e08a df88 5d37 e43f 3226 b733 c239 25c0
00000220: 8c1e c1b2 26c1 66c0 4309 90e7 dc27 66c0
00000230: 48e1 7a14 ae05 71c0 0f9d 23a6 086b 6840
00000240: 0000 0000 0000 0000 0000 0000 0000 0000
00000250: 0000 0000 0000 0000 0000 0000 0000 0000
00000260: 4276 177d 92c1 0140 0000 0000 0000 0000
00000270: 0000 0000 0000 0000 0000 0000 0000 0000
00000280: e1e2 b931 aed5 7240 aca4 3636 9620 3440
00000290: 8ccb cdc6 ba33 0140 683a f764 440e 31c0
000002a0: 64ac ba84 3b08 42c0 b80a d2a3 4633 1ac0
000002b0: 6eb4 9049 a791 33c0 d360 1ea7 7ecc 6940
000002c0: 8e2c 6e3e af0d 70c0 0b12 03c1 4c18 70c0
000002d0: 8cd6 51d5 4490 70c0 0266 0f8e 12db 54c0
000002e0: 0000 0000 0000 0000 0000 0000 0000 0000
000002f0: 0000 0000 0000 0000 0000 0000 0000 0000
00000300: 0000 0000 0000 0000 0000 0000 0000 0000
00000310: 0000 0000 0000 0000 0000 0000 0000 0000
