AI_lab/lab_7_reinforcement_learning/saved_models/FrozenLake/QAgent/run-2024-06-04_13-25-52/model_best.npy (npy, 928 bytes, 1 tensors)

array f8 [25, 4]
000000 00 00 00 00 00 00 00 00 00 00 00 00 00 00 00 00
       0.0 0.0
000010 00 00 00 00 00 00 00 00 00 00 00 00 00 00 00 00
       0.0 0.0
000020 de a7 fd be a4 81 38 40 11 0e 6a 7d e9 e7 60 40
       24.506420075347584 135.247252185
000030 ec fb 24 78 af c9 26 40 00 00 00 00 00 00 00 00
       11.393916849627168 0.0
000040 ce 4a b9 8d 8c 13 42 40 1e 3d 84 8c f1 75 41 40
       36.152726855730734 34.92143398720712
000050 08 13 e7 37 c7 a8 5c 40 00 00 00 00 00 00 00 00
       114.63715932432035 0.0
000060 31 00 f4 b6 06 03 5b 40 e4 7f d5 74 8d 1a 58 40
       108.0472848303623 96.4148838124234
000070 7d 78 80 4e e7 6d 60 40 00 00 00 00 00 00 00 00
       131.4344856747811 0.0
000080 97 5f 9d 64 85 d2 59 40 89 64 55 60 7c 54 58 40
       103.28939166420456 97.32009132708676
000090 b8 61 eb 7b a4 85 59 40 ee f0 f0 6d 85 60 5e 40
       102.08816431032653 121.50814388780029
0000a0 00 00 00 00 00 00 00 00 00 00 00 00 00 00 00 00
       0.0 0.0
0000b0 00 00 00 00 00 00 00 00 00 00 00 00 00 00 00 00
       0.0 0.0
0000c0 8c 52 a4 1b 45 e0 49 c0 ad d1 40 93 94 c3 4a c0
       -51.752109008060046 -53.527971655511784
0000d0 47 46 48 7b 12 87 42 40 c8 44 70 f9 bc 81 4c c0
       37.05525151280431 -57.013579540079775
0000e0 eb 20 6f 99 20 4c 56 40 a4 28 37 cb a8 a2 2c 40
       89.18948970653916 14.317694044574019
0000f0 f3 88 58 68 14 5e 3d 40 2e ca 7b f2 e0 7d e7 bf
       29.367498895277958 -0.7341160522467527
000100 4c 54 e5 fe fd 02 5c 40 3b 08 ac 33 9b 51 02 40
       112.04675266642988 2.289846805274491
000110 49 32 f7 b6 30 26 46 40 9e d3 c8 59 c0 a7 bb bf
       44.298361654950504 -0.10802843276981242
000120 9e da 79 1a 9d 67 5b 40 b1 96 bd c7 f2 6b 33 40
       109.61896383189966 19.42167328241948
000130 cb 7e cf 8f 00 c2 41 40 00 00 00 00 00 00 00 00
       35.51564214355093 0.0
000140 7f 72 28 b1 8c 68 77 c0 6d 3f 8d 5e e1 6f 57 c0
       -374.53434863853175 -93.74813045304991
000150 8a f5 98 b5 10 56 54 c0 51 54 39 ab c5 4d 57 c0
       -81.34476985871711 -93.2151897487504
000160 0b 9e bd 58 93 06 27 c0 2a cd c1 3b 1e 5b 2c c0
       -11.51284291567483 -14.177965037734413
000170 bf ef b5 59 9d c8 43 40 ef 59 fe fc c4 a3 29 c0
       39.567301954113184 -12.819862276123756
000180 3a da 55 3f a8 7f 4e 40 33 b6 74 7c 93 b2 31 c0
       60.9973220032884 -17.697562960142204
000190 8a 67 72 6a fa 39 17 c0 23 48 62 a6 8d 11 17 c0
       -5.806619322998708 -5.767141914127964
0001a0 bb 91 37 2c 00 78 2f 40 96 3f 56 cc 3a d7 6a c0
       15.734376317771298 -214.7259275135554
0001b0 bf f5 1f ec 46 3e 45 c0 38 fd 51 fa d7 bb 47 c0
       -42.48653937874359 -47.46752861979843
0001c0 b9 f9 68 5a f2 f7 4e 40 4c 7e 40 00 e9 2a e6 3f
       61.937083531625326 0.6927380566521122
0001d0 48 6e 5e 7c 0b 65 aa 3f 75 ba 7f 0b b6 88 c7 bf
       0.05155216115164457 -0.1838595920703089
0001e0 61 b9 bf a3 0d d5 40 c0 2d 47 88 e4 43 0b 40 c0
       -33.66447874890833 -32.088009420911796
0001f0 2b 7c 99 9d 69 54 2f c0 f3 c1 79 6e c2 0b 40 c0
       -15.664868283258405 -32.09187107987591
000200 e0 43 fd 61 dc b3 18 40 15 43 91 7e d2 6f 38 c0
       6.1756453810530445 -24.43680563970982
000210 b4 e7 9d 25 16 b6 3f c0 aa 80 23 4b 5b ea 35 c0
       -31.711275435496376 -21.915455528419137
000220 83 be 94 c9 d9 8e 4d c0 32 91 64 0e 7a 33 55 c0
       -59.116021344784734 -84.80432472058308
000230 07 a1 df 23 50 0f 73 c0 6b ea e8 61 07 7a 52 c0
       -304.95706546168407 -73.90670058961557
000240 00 00 00 00 00 00 00 00 00 00 00 00 00 00 00 00
       0.0 0.0
000250 00 00 00 00 00 00 00 00 00 00 00 00 00 00 00 00
       0.0 0.0
000260 d1 97 32 f4 2a cf 3f c0 20 a9 20 21 9d 42 37 c0
       -31.80924917445356 -23.26021010444049
000270 39 e4 ce e1 cb c1 3b c0 f8 ca 17 0f 4a 0c 34 c0
       -27.757017243395442 -20.04800505
000280 1e 78 bc 73 0c 39 40 c0 c0 75 22 42 df 62 40 c0
       -32.44569250776861 -32.772438303781655
000290 cc 80 f0 1a 97 a3 34 c0 1d 54 cc 6a bc b1 40 c0
       -20.639024432865696 -33.388562536020096
0002a0 d3 b1 93 56 da 6a 2d c0 c4 ee 53 19 b7 8f 3d c0
       -14.708697038201455 -29.561387618056656
0002b0 ef 7c 65 11 fc b7 42 c0 21 62 c1 3c 0f e8 3d c0
       -37.437380003504465 -29.906482503140186
0002c0 ab 9a 4c d7 dd a6 55 c0 33 cd e8 bd 7b 49 5c c0
       -86.60729010086895 -113.14817760214355
0002d0 fb 22 93 42 f9 10 7a c0 ae 5c 87 df 9f c4 54 c0
       -417.0608545062566 -83.0722578832526
0002e0 00 00 00 00 00 00 00 00 00 00 00 00 00 00 00 00
       0.0 0.0
0002f0 00 00 00 00 00 00 00 00 00 00 00 00 00 00 00 00
       0.0 0.0
000300 c8 16 dc 0c 34 10 50 c0 d8 b9 06 8f 5d 24 53 c0
       -64.2531768941218 -76.56821036965209
000310 df f6 1f 84 6c b3 51 c0 f3 34 0d 7d 72 14 51 c0
       -70.80349829789655 -68.31948782243471
