AI_lab/lab_7_reinforcement_learning/saved_models/FrozenLake/QAgent/run-2024-06-04_13-25-52/model.npy (npy, 928 bytes, 1 tensors)

array f8 [25, 4]
0	0x0000000000000000	0.0
1	0x0000000000000000	0.0
2	0x0000000000000000	0.0
3	0x0000000000000000	0.0
4	0x404d7d5b94cfaedc	58.97935733929418
5	0x406697fe4d052d75	180.74979258548015
6	0x403fe2e2bd941072	31.88627228607988
7	0x0000000000000000	0.0
8	0x4061f7c01adc1614	143.74220030770869
9	0x40601ca24188b4d5	128.89480663967575
10	0x4064e49b5844964b	167.14396298786082
11	0x0000000000000000	0.0
12	0x406524a1f2e83d81	169.14476914748596
13	0x4063962ab476f59e	156.6927130053927
14	0x4065d0a009e81cde	174.51953597387813
15	0x0000000000000000	0.0
16	0x406447d365a96406	162.24455531200528
17	0x40641a4bfea0762a	160.82177668895866
18	0x40644426f0c68dec	162.12975348262933
19	0x4064fd977a44d7c3	167.92474091955054
20	0x0000000000000000	0.0
21	0x0000000000000000	0.0
22	0x0000000000000000	0.0
23	0x0000000000000000	0.0
24	0xc04059a32993fec2	-32.70029182173086
25	0xc0468d82e24649b4	-45.105556759186044
26	0x4058c8f54075938d	99.13996898157184
27	0xc04c81bcf97044c8	-57.013579540079775
28	0x4062dcd40c0965d3	150.90088464580057
29	0x405810ea2a3b0550	96.26429229511018
30	0x405efff884fddf7e	123.99954342644011
31	0xbfe77de0f27bca2e	-0.7341160522467527
32	0x4064103e067f4231	160.5075714574355
33	0x40538d17b4337efa	78.20457177189738
34	0x4060fc443a6b7deb	135.88332863802438
35	0xbfbba7c059c8d39e	-0.10802843276981242
36	0x40657df256d913a9	171.93583242795765
37	0x405e11970019f7be	120.2748413327781
38	0x4061b29251c6d4a5	141.58036125978575
39	0x0000000000000000	0.0
40	0xc07ce68f192b70c2	-462.40993611306124
41	0xc054388e55679128	-80.88368735422102
42	0xc042ea88ac079412	-37.83229589815177
43	0xc0574dc5ab395451	-93.2151897487504
44	0x4045def0f8732ce5	43.74172883628652
45	0x40426834bcaa472f	36.81410940470084
46	0x4059bc576ea5a524	102.94283643890645
47	0xc029a3c4fcfe59ef	-12.819862276123756
48	0x405f051246d275ab	124.07924051811885
49	0x4026a500be42daa1	11.322271295224086
50	0x40441f2cab5fe813	40.243550702885976
51	0xc017118da6624823	-5.767141914127964
52	0x404f229081654724	62.270034956409546
53	0xc07d4d98b9245412	-468.84978594008237
54	0xc026ae45fad2e265	-11.340377653353423
55	0xc047bbd7fa51fd38	-47.46752861979843
56	0x4060b3791d404d23	133.60853445586062
57	0x3ff28b594f6d926c	1.1590207197815756
58	0x40412012635ad075	34.25056116041461
59	0xbfc788b60b7fba75	-0.1838595920703089
60	0xc03e08b77ee6408a	-30.034049922193425
61	0xc02b3a1df1e9d80e	-13.613509712024122
62	0x404e45505fc87b06	60.54151532448854
63	0xc0400bc26e79c1f3	-32.09187107987591
64	0x405385728f9cd5cf	78.08511724773346
65	0x4038e64edee25d21	24.89964097048244
66	0x40154d3ed97baa11	5.325435064480659
67	0xc035ea5b4b2380aa	-21.915455528419137
68	0xbffff6fd6d85ec12	-1.997800281357517
69	0xc0514fcf635a40e3	-69.24703296483817
70	0xc079e35860ca1bb6	-414.20907668064626
71	0xc0527a0761e8ea6b	-73.90670058961557
72	0x0000000000000000	0.0
73	0x0000000000000000	0.0
74	0x0000000000000000	0.0
75	0x0000000000000000	0.0
76	0xc0228255fafc77fc	-9.254562228506977
77	0xc0409361fc08cba1	-33.15142774991478
78	0xc03e01070daad0e6	-30.00401387615502
79	0xc0424f3697bb8ff4	-36.61885353716198
80	0x403a586527a8d5d5	26.345293501586486
81	0x4032bb06e5d92976	18.730574002759987
82	0x404a2303a6d6b58d	52.273548941458195
83	0xc040b1bc6acc541d	-33.388562536020096
84	0x404da24869e6ef65	59.267834890137955
85	0x4035f7eb8c5678ff	21.968437930213437
86	0xc03449239f5f319e	-20.285699806919745
87	0xc03de80f3cc16221	-29.906482503140186
88	0xc0568fcf82ac7c3e	-90.2470404323985
89	0xc05ab8aa5427f67d	-106.88539604094144
90	0xc07f41abbc4ad746	-500.1044276164506
91	0xc0251999317113f2	-10.54999689584108
92	0x0000000000000000	0.0
93	0x0000000000000000	0.0
94	0x0000000000000000	0.0
95	0x0000000000000000	0.0
96	0xc052fa82188b033a	-75.91419042182397
97	0xc053239cfb0c1a86	-76.55645633871072
98	0xc0540534e63987ce	-80.08135371797763
99	0xc0536bec393db6fb	-77.68629294421036
