AI_lab/lab6_neural_networks/my_model.pkl (torch, 12550 bytes, 9 tensors)

layers.0.weight f4 [16, 2]
-2.4096813 -0.23997 -3.5908241 -2.4544408 0.16969341 0.24066441 5.518164 -1.5324335
-4.931636 4.7360287 0.45129663 -2.1104412 5.6374307 -2.8827293 0.9072282 -6.9547343
0.17860334 -0.5663387 -1.3401912 -2.2932236 3.9417405 5.978359 -4.235433 0.47099695
2.1676152 1.531072 0.010259976 -0.44514254 -6.1764374 -3.6992464 0.99126977 -4.856473
00000000: 3838 1ac0 b2ba 75be 10d0 65c0 8f15 1dc0
00000010: 1cc4 2d3e bb70 763e cd94 b040 c826 c4bf
00000020: f6cf 9dc0 8c8d 9740 5a10 e73e 7811 07c0
00000030: d565 b440 a37e 38c0 1b40 683f 2f8d dec0
00000040: cbe3 363e 93fb 10bf 638b abbf 2dc4 12c0
00000050: 7a45 7c40 b84e bf40 ab88 87c0 8326 f13e
00000060: 35ba 0a40 2bfa c33f 7519 283c b9e9 e3be
00000070: 60a5 c5c0 74c0 6cc0 dbc3 7d3f 3a68 9bc0

layers.0.bias f4 [16]
-0.3962264 -2.8207574 -0.6573593 -4.0130157 -1.3605311 0.51081425 -1.657942 -2.1371794
-0.6776792 -0.36141637 -2.249169 -2.9305608 0.5960252 -0.44045934 -2.5384824 -3.0715034
00000000: 30de cabe 4a87 34c0 b348 28bf a06a 80c0
00000010: e225 aebf b9c4 023f 7237 d4bf 8cc7 08c0
00000020: 627c 2dbf 910b b9be 63f2 0fc0 4f8e 3bc0
00000030: 1c95 183f e383 e1be 7f76 22c0 8393 44c0

layers.1.weight f4 [32, 16]
-0.9790985 0.47810987 -0.08546063 -0.6916012 -2.7311482 -1.1889459 0.32967088 1.6283842
0.09497979 -0.75081587 -3.0190017 0.5048346 0.50568205 0.07749057 1.4160097 0.3618208
-0.19614409 -0.112685665 -0.14102656 -0.15289469 -0.012707591 0.026169736 -0.19233547 0.3213132
-0.16637811 -0.09518261 -0.20050761 -0.10399994 0.12134711 -0.20939496 0.020727398 0.099679805
-0.104157 -0.20750166 -0.15870687 0.19251004 0.28775018 -0.23366857 -0.19590217 -0.050807353
-0.11673358 -0.11849957 -0.14546846 0.773665 -0.5279267 0.07870591 -0.3125845 -0.10291619
0.56847805 0.90682167 -0.2042692 -1.3800836 -2.278023 -0.32095212 -0.40370595 0.2192795
-0.07795882 -0.113642655 -1.2495604 1.1536932 1.9775709 -0.17558092 1.1473705 0.95355934
0.36768067 0.4912055 0.056190073 -0.12924732 1.8087599 1.1383699 -0.28151324 0.6004575
-0.24849546 1.6221108 0.5091236 0.70074284 -0.327754 0.02359891 0.8488389 0.9478965
0.03359924 -0.3384257 0.004360974 -0.95146483 -0.5481056 -1.0797724 1.4153662 -0.0057098083
-0.17207569 -0.40576172 -0.34277675 -0.2969813 -0.011540578 -0.22142252 0.7168074 -1.0446329
0.0942896 0.041058682 0.033243746 2.3855863 1.5942209 -0.44539633 1.3164752 0.44686192
-0.20055604 -0.3176281 1.395255 -0.4328283 -0.41005793 0.040203303 -0.08375725 1.2724026
0.59817564 -0.26294583 0.22879148 0.37769127 -0.34574273 -0.5171006 1.241245 2.4027748
0.13960621 -0.3081251 0.33718702 -0.3658627 1.697291 0.074105114 2.3382668 0.535058
0.12351999 0.18677878 0.1058473 0.14417973 -0.29577658 -0.08066745 -0.20264047 0.018683115
0.12673923 -0.1941891 0.08150911 0.37355375 -0.1605405 -0.0033056736 0.5762568 0.032687664
-0.14266554 0.13307187 -0.1118269 -0.040191922 -0.11964533 -0.27891645 -1.3952174 0.1518797
-0.22751361 -0.086480424 0.9163733 0.15291616 -0.14241424 0.05379957 -0.23081964 0.18740728
0.0991672 -0.22937688 -0.17455167 2.0915651 0.14856844 -0.5410141 0.8739737 -0.73190033
-0.22909522 -0.34673974 0.944678 0.012642086 0.13649958 -0.116200894 -0.2402865 0.051682275
0.2940553 -0.8093325 -0.2229799 -0.23812073 0.11630273 0.45398203 -0.61293983 0.19091558
-0.15862986 0.045796946 -1.2414649 -0.6219933 -0.19513169 -0.080711424 -0.114230044 -1.087095
-0.084753186 0.18864277 -0.12591928 -0.8765587 -0.01695936 0.03954931 0.81431305 1.2112701
-0.19631669 -0.5043626 -0.38073933 0.29209504 0.46470538 -0.124087274 -0.2542891 0.0069110733
-0.0590359 -0.5446773 -0.14912021 -0.20779075 0.10711477 0.44811884 -0.49030763 0.12251939
-0.21474794 -0.041417427 -0.9098941 -0.5947232 0.020848196 -0.09077573 0.20852433 -0.7189298
-0.14683907 0.24681635 -0.1367765 0.079618245 -0.0044425763 -0.03072052 -1.4888455 -0.19211417
-0.22544378 0.17104599 1.2385176 0.22256275 -0.34490284 0.15034741 -0.09069245 0.08050017
-0.24139138 0.22454666 0.07911453 0.040999565 0.021168387 0.15160239 0.035673708 0.06417801
0.14798522 -0.15362878 0.045401327 0.19464357 -0.020151032 -0.14542538 0.040303882 -0.14093022
00000000: 33a6 7abf d1ca f43e fc05 afbd c70c 31bf
00000010: 22cb 2ec0 612f 98bf 9fca a83e e56e d03f
00000020: c484 c23d 7835 40bf 5337 41c0 d73c 013f
00000030: 6174 013f 60b3 9e3d ce3f b53f 9340 b93e
00000040: ffd9 48be bec7 e6bd 4469 10be 6d90 1cbe
00000050: 8033 50bc ea61 d63c 97f3 44be 2a83 a43e
00000060: 065f 2abe 1aef c2bd de51 4dbe ecfd d4bd
00000070: d584 f83d a26b 56be 81cc a93c ed24 cc3d
00000080: 4450 d5bd 517b 54be 0e84 22be 5a21 453e
00000090: fe53 933e d046 6fbe 949a 48be 5f1b 50bd
000000a0: 0412 efbd e7af f2bd aff5 14be e90e 463f
000000b0: 3426 07bf 9030 a13d 130b a0be b9c5 d2bd
000000c0: c787 113f 7725 683f f22b 51be 94a6 b0bf
000000d0: 21cb 11c0 d653 a4be 8cb2 cebe ce8a 603e
000000e0: e0a8 9fbd 7bbd e8bd 98f1 9fbf 38ac 933f
000000f0: 0b21 fd3f 7ccb 33be 09dd 923f 771c 743f
00000100: a440 bc3e 4a7f fb3e 9027 663d 6959 04be
00000110: 7285 e73f 1bb6 913f 8122 90be 95b7 193f
00000120: 9875 7ebe 54a1 cf3f ed55 023f e263 333f
00000130: 5fcf a7be 8052 c13c 824d 593f 58a9 723f
00000140: 5b9f 093d 2246 adbe 80e6 8e3b 3393 73bf
00000150: a650 0cbf fb35 8abf b82a b53f 5819 bbbb
00000160: 9c34 30be 00c0 cfbe 6f80 afbe ef0d 98be
00000170: b114 3dbc 96bc 62be b180 373f 88b6 85bf
00000180: e81a c13d 262d 283d 982a 083d 72ad 1840
00000190: 6e0f cc3f fd0a e4be 4282 a83f 16cb e43e
000001a0: 905e 4dbe 26a0 a2be b797 b23f ac9b ddbe
000001b0: 1df3 d1be 38ac 243d ec88 abbd 17de a23f
000001c0: 0a22 193f d6a0 86be 5048 6a3e c060 c13e
000001d0: 3105 b1be b460 04bf 1ee1 9e3f 10c7 1940
000001e0: eef4 0e3e 93c2 9dbe c7a3 ac3e 5b52 bbbe
000001f0: d540 d93f 6cc4 973d 2aa6 1540 90f9 083f
00000200: 0cf8 fc3d f042 3f3e 78c6 d83d daa3 133e
00000210: 0770 97be fa34 a5bd fc80 4fbe 550d 993c
00000220: eec7 013e 82d9 46be 40ee a63d 7042 bf3e
00000230: bb64 24be 00a4 58bb 9185 133f 80e3 053d
00000240: ea16 12be fe43 083e 8005 e5bd 49a0 24bd
00000250: 9c08 f5bd 23ce 8ebe 7c96 b2bf 5a86 1b3e
00000260: 54f9 68be a61c b1bd 7197 6a3f 0e96 1c3e
00000270: 0ad5 11be f05c 5c3d fc5b 6cbe b2e7 3f3e
00000280: 2c18 cb3d c6e1 6abe acbd 32be 34dc 0540
00000290: 5322 183e e67f 0abf bebc 5f3f d25d 3bbf
000002a0: f097 6abe df87 b1be 6bd6 713f c020 4f3c
000002b0: 8cc6 0b3e bcfa edbd aa0d 76be cbb0 533d
000002c0: 6b8e 963e 6a30 4fbf d854 64be ecd5 73be
000002d0: 2030 ee3d 5570 e83e a0e9 1cbf 607f 433e
000002e0: de6f 22be 9495 3b3d 52e8 9ebf f43a 1fbf
000002f0: 9ad0 47be 084c a5bd 71f1 e9bd ee25 8bbf
00000300: 1493 adbd 922b 413e fcf0 00be 2766 60bf
00000310: 5bee 8abc 75fe 213d d276 503f e60a 9b3f
00000320: 3e07 49be e81d 01bf 44f0 c2be 7b8d 953e
00000330: dded ed3e 7821 febd 2e32 82be 4976 e23b
00000340: a1cf 71bd f96f 0bbf f8b2 18be 19c7 54be
00000350: fd5e db3d d56f e53e 9a09 fbbe 72eb fa3d
00000360: e2e6 5bbe 52a5 29bd d2ee 68bf c83f 18bf
00000370: d6c9 aa3c a0e8 b9bd 6787 553e c90b 38bf
00000380: fb5c 16be 6dbd 7c3e 240f 0cbe e40e a33d
00000390: 0893 91bb 9aa9 fbbc 7d92 bebf 94b9 44be
000003a0: bcda 66be ae26 2f3e bf87 9e3f 7de7 633e
000003b0: 1b97 b0be acf4 193e f7bc b9bd 46dd a43d
000003c0: 4d2f 77be 8fef 653e cc06 a23d 29ef 273d
000003d0: 5369 ad3c a83d 1b3e 981e 123d c36f 833d
000003e0: 7089 173e dd50 1dbe bef6 393d a550 473e
000003f0: c713 a5bc 64ea 14be af15 253d 0350 10be

layers.1.bias f4 [32]
1.9441264 -0.3375728 -0.68267274 -0.4355778 -2.6617537 1.3185349 -4.204324 -2.8040197
-0.6334373 -1.8241472 -3.013005 0.8120927 -0.99422306 0.38195205 -2.3582823 -0.3697198
0.85596836 -0.8696566 4.0946345 -0.15748265 -1.7911335 -0.13615437 -0.31304616 -0.8778364
-4.13826 -0.74789447 -0.035887342 -0.031228459 -2.250456 -0.52568835 0.38764635 -2.2152297
00000000: 22d9 f83f 58d6 acbe a4c3 2ebf 0e04 dfbe
00000010: 2c5a 2ac0 c0c5 a83f d289 86c0 0f75 33c0
00000020: f228 22bf a87d e9bf 13d5 40c0 4fe5 4f3f
00000030: 6785 7ebf 388f c33e 19ee 16c0 ea4b bdbe
00000040: be20 5b3f d1a1 5ebf 3f07 8340 2243 21be
00000050: dd43 e5bf 0d6c 0bbe 9647 a0be e3b9 60bf
00000060: a06c 84c0 0376 3fbf 9bfe 12bd d3d2 ffbc
00000070: 7907 10c0 8393 06bf 9579 c63e 53c6 0dc0

layers.2.weight f4 [32, 32]
-0.3660553 0.16353157 -0.15732081 -0.48317656 0.10298893 -0.48632073 -0.3805144 0.5291191
0.17608143 -0.101052776 -0.04917934 -0.616177 -0.5216814 -0.19603848 -0.32238296 0.056250174
-0.07087982 0.21391265 -0.7913784 -0.042243954 -0.6519904 -0.23222353 0.11421254 -0.09032628
-0.27503586 -0.064927086 0.038443647 -0.12052451 0.2094777 -0.076049276 0.088620506 0.07408832
1.0856419 -0.15944202 -0.04915012 -0.045567725 0.18884082 0.038026076 -0.35827094 -2.1097376
0.15417989 -0.23286498 -0.27010655 0.33523858 -0.9470977 0.33872312 -0.18649252 0.032782238
-1.2100328 -0.47888795 0.50876015 -0.07276685 0.07730178 -0.13741788 0.041110583 -0.78997415
-1.3389791 0.36741874 0.016956441 -0.3706095 0.32936528 0.045189187 -0.9404398 -0.9190523
-0.25665498 -0.11888551 0.13105237 0.004446222 -0.08998614 -0.01956422 0.048982985 0.19182833
0.15423997 -0.10580501 0.29471385 0.068122946 -0.110372074 -0.16007079 0.118503645 0.061882444
0.11686543 0.19794686 0.02485495 -0.14068204 -0.166269 -0.16965058 0.06969254 -0.01779343
0.09468431 -0.084850006 0.012886467 -0.03760199 0.039359268 -0.12676747 -0.064886905 -0.047589645
0.045770165 0.11465225 0.02805033 -0.34955832 0.09409322 0.08236921 -0.4264347 -0.6350142
0.09656907 -0.078453444 -0.26187778 -0.029386709 -0.115393974 -0.078957684 -0.00927907 0.16867483
0.21158375 -0.22278067 0.027486883 0.14810099 0.35254654 -0.16270123 -0.12879917 -0.42131048
-0.47596067 0.2296486 0.047614977 -0.12126679 0.098479375 0.12721016 -0.37534258 -0.47228163
0.23136319 0.12764269 0.030978948 -0.01984979 -0.42708904 -0.28828508 0.05310779 -0.10572689
0.17678264 0.15498868 -0.0266492 0.089890786 0.024815356 0.24699944 0.15591897 0.045435708
-0.4089033 -0.10501222 0.17226362 -0.11021649 -0.5166856 -0.12697248 -0.064998366 -0.056275565
0.013732501 0.13477284 0.0773661 -0.30620793 0.13052295 -0.11144437 -0.10666337 0.0217467
-0.11135262 -0.10225283 0.16582303 -1.5438111 0.4591017 -0.13414069 -0.8963695 -0.4965406
-0.076535985 0.06626166 0.16268417 -0.016894542 -0.93701273 -0.082597114 -0.050329495 0.021249913
0.16451551 0.21535654 0.17249781 0.08871098 0.5402413 -0.4511019 -0.09304342 -1.1902592
-1.9713408 0.45313287 -0.06483259 -0.41590038 0.5922189 0.05071697 -0.5453773 -1.0542213
0.8655123 -0.16333237 0.5516997 1.1423594 0.10235353 -0.5113183 0.37854058 0.04108165
0.5672931 -0.043792184 -0.07690026 -0.60410726 0.18400216 -0.4327687 -0.13612877 0.043226786
0.3144876 -0.39948997 -1.7502034 0.07378912 0.31332716 -0.18858866 0.33605492 0.6397872
0.6699021 0.5235489 -0.1114489 -0.11742311 0.39909148 0.28634748 0.32427925 0.76767427
0.52029026 -0.04999421 -0.11259095 0.2225933 0.40222976 0.41566667 -1.0193166 -2.1699162
-0.002180011 -0.09592638 -0.21141973 -0.08852981 -0.6527618 0.0069467705 -0.13525733 -0.0526722
-0.023593916 -0.6330418 -0.009237068 -0.12952031 0.41037783 -0.5077359 -0.035229042 -0.32272846
-0.9549454 0.48608544 -0.13648102 -0.34632832 0.29198804 0.12663873 -0.037475903 -0.6886519
00000000: 9a6b bbbe d274 273e b518 21be eb62 f7be
00000010: dceb d23d 08ff f8be c9d2 c2be 5974 073f
00000020: b14e 343e c2f4 cebd 4770 49bd c7bd 1dbf
00000030: ea8c 05bf 50be 48be 610f a5be 9566 663d
00000040: 7029 91bd eb0b 5b3e c697 4abf ff07 2dbd
00000050: d8e8 26bf 01cc 6dbe 44e8 e93d fcfc b8bd
00000060: 80d1 8cbe 7ef8 84bd 1677 1d3d 8ed5 f6bd
00000070: 5281 563e b9bf 9bbd ab7e b53d 9ebb 973d
00000080: 50f6 8a3f c544 23be a351 49bd 39a5 3abd
00000090: 7d5f 413e 3bc1 1b3d 4a6f b7be f105 07c0
000000a0: 55e1 1d3e 2874 6ebe 684b 8abe 64a4 ab3e
000000b0: ff74 72bf 1e6d ad3e e5f7 3ebe ab46 063d
000000c0: 5be2 9abf cd30 f5be 1b3e 023f c906 95bd
000000d0: 6550 9e3d 46b7 0cbe 9263 283d bf3b 4abf
000000e0: ab63 abbf 4f1e bc3e 3ce8 8a3c 87c0 bdbe
000000f0: 91a2 a83e 4c18 393d aac0 70bf 0347 6bbf
00000100: 4868 83be 3f7a f3bd 9832 063e 9db1 913b
00000110: a74a b8bd 2545 a0bc 62a2 483d a56e 443e
00000120: 15f1 1d3e 4cb0 d8bd bce4 963e 0b84 8b3d
00000130: c10a e2bd 99e9 23be 0ab2 f23d 7278 7d3d
00000140: 2457 ef3d 95b2 4a3e 9c9c cb3c f40e 10be
00000150: 6c42 2abe e2b8 2dbe f6ba 8e3d 87c3 91bc
00000160: d9e9 c13d d7c5 adbd c321 533c 8b04 1abd
00000170: 2f37 213d 55cf 01be 6de3 84bd 5ced 42bd
00000180: 7f79 3b3d cdce ea3d cec9 e53c 4ff9 b2be
00000190: f2b3 c03d 30b1 a83d a655 dabe 4a90 22bf
000001a0: 01c6 c53d 33ac a0bd d814 86be 65bc f0bc
000001b0: ad53 ecbd 91b4 a1bd 3e07 18bc 18b9 2c3e
000001c0: 69a9 583e 9e20 64be 2c2c e13c c9a7 173e
000001d0: fb80 b43e 279b 26be eee3 03be 02b6 d7be
000001e0: 1eb1 f3be 0129 6b3e ec07 433d b95a f8bd
000001f0: 8eaf c93d 6143 023e e72c c0be e6ce f1be
00000200: 79ea 6c3e c4b4 023e 90c7 fd3c 079c a2bc
00000210: 6aab dabe 1a9a 93be 8e87 593d 5787 d8bd
00000220: 8206 353e 5ab5 1e3e 6c4f dabc a918 b83d
00000230: 9349 cb3c 6ced 7c3e 39a9 1f3e cb1a 3a3d
00000240: c65b d1be a610 d7bd e065 303e 2fb9 e1bd
00000250: 8245 04bf 1305 02be dd1d 85bd 3581 66bd
00000260: 49fe 603c e401 0a3e 1e72 9e3d 49c7 9cbe
00000270: cfa7 053e f23c e4bd 5372 dabd 2326 b23c
00000280: d80c e4bd ef69 d1bd 83cd 293e 9a9b c5bf
00000290: 610f eb3e 2d5c 09be 7978 65bf 923a febe
000002a0: e6be 9cbd 31b4 873d ae96 263e 6c66 8abc
000002b0: 11e0 6fbf ad28 a9bd 4d26 4ebd 4c14 ae3c
000002c0: c176 283e 6d86 5c3e 44a3 303e 1aae b53d
000002d0: 414d 0a3f d4f6 e6be 8c8d bebd 6a5a 98bf
000002e0: e554 fcbf 0801 e83e f3c6 84bd e5f0 d4be
000002f0: a89b 173f 99bc 4f3d d99d 0bbf b9f0 86bf
00000300: 3792 5d3f 9a40 27be 313c 0d3f d538 923f
00000310: ba9e d13d c2e5 02bf 12d0 c13e 3b45 283d
00000320: 1f3a 113f 6f5f 33bd e27d 9dbd c6a6 1abf
00000330: 106b 3c3e dc93 ddbe 5765 0bbe 920e 313d
00000340: 8504 a13e f389 ccbe aa06 e0bf c01e 973d
00000350: 6b6c a03e 631d 41be 640f ac3e 18c9 233f
00000360: b47e 2b3f 4d07 063f 523f e4bd 877b f0bd
00000370: b855 cc3e 239c 923e ee07 a63e 4d86 443f
00000380: be31 053f bbc6 4cbd 1696 e6bd 7fef 633e
00000390: 0ff1 cd3e 43d2 d43e f778 82bf e8df 0ac0
000003a0: 84de 0ebb 0d75 c4bd 6a7e 58be 1e4f b5bd
000003b0: 661b 27bf bca1 e33b e680 0abe cebe 57bd
000003c0: 0748 c1bc 070f 22bf 1257 17bc f9a0 04be
000003d0: 0b1d d23e fbfa 01bf 544c 10bd aa3c a5be
000003e0: 4d77 74bf 31e0 f83e aec1 0bbe f251 b1be
000003f0: 757f 953e 95ad 013e 5580 19bd 7e4b 30bf

layers.2.bias f4 [32]
1.2836547 0.09472025 -0.14091177 0.6319265 -0.4630039 2.2790453 -2.793141 0.30762604
-0.28115323 -2.6188169 -0.1745311 0.5612015 -0.051020954 -0.36438376 0.9133668 -0.31765702
-0.34655693 -0.58757925 -1.027409 -2.258759 0.16425595 -1.6830564 0.64160496 -0.07614333
-0.17721382 0.44237095 0.47971797 0.026785724 -0.21403559 0.07326878 -0.14309675 -0.64221776
00000000: cc4e a43f b1fc c13d 2d4b 10be efc5 213f
00000010: d90e edbe e1db 1140 d2c2 32c0 2981 9d3e
00000020: 51f3 8fbe b29a 27c0 48b8 32be e7aa 0f3f
00000030: 59fb 50bd 8290 babe 68d2 693f f1a3 a2be
00000040: e96f b1be 986b 16bf 2382 83bf 828f 10c0
00000050: b632 283e 646e d7bf 3940 243f 09f1 9bbd
00000060: 8a77 35be 727e e23e 989d f53e bc6d db3c
00000070: 252c 5bbe f10d 963d f487 12be 6268 24bf

layers.3.weight f4 [16, 32]
0.498593 0.025821576 -0.2086026 0.1686187 -0.17225759 0.5219743 0.49699923 0.38718626
-0.03968458 1.1208634 0.17665526 -0.23264712 0.115616284 -0.37062317 0.80519646 0.24841824
-0.59896135 0.7690737 0.6327427 -1.459144 0.835384 -0.89636374 0.2855515 -0.07125403
0.07271966 0.18482596 0.12105942 0.03974611 -0.062960036 0.1112433 0.07330517 -0.4394067
0.7708085 0.501621 0.07761201 0.1458012 -0.22433296 0.5528372 0.07670473 0.33168748
-0.38563225 0.28233305 0.092819504 0.06103289 -0.028690118 -1.206046 0.6169293 0.21814112
-1.3526679 0.95433545 0.16385698 -1.3651557 0.57529026 -0.97100544 0.29339114 -0.18099937
-0.12738948 -0.0070425496 0.1586474 0.09167939 -0.26757434 0.2344719 -0.71226835 -0.08661608
-0.053606812 0.077182144 -0.0868662 0.07801757 -0.10566357 -0.117705025 0.22296804 -0.13427167
0.087209105 0.1400646 -0.103266545 -0.014836033 -0.08217182 0.22419137 -0.15428507 0.114101656
-0.13039184 -0.07035479 0.116455376 -0.18822448 0.05476492 -0.17598636 0.004339821 -0.018568512
0.07846509 0.14327271 0.03383678 0.06278478 0.018039027 0.16900617 0.07638046 -0.048229918
0.11814851 -0.06975687 0.018745894 0.10152517 -0.06975747 -0.05769716 0.17799076 -0.07403428
-0.13569045 0.17473346 0.14939621 0.11546313 -0.10056623 -0.16718006 0.07762197 -0.17343159
0.024276488 -0.05507963 0.042708073 0.0832194 -0.061371543 -0.017565379 0.017509392 -0.17579912
0.09515894 -0.0654528 0.08004411 0.1337421 0.002290342 0.021537438 0.082270786 -0.14644434
0.65761167 -0.34406495 0.23135617 0.3140637 -0.21544543 0.67500323 0.15073574 -0.06134585
-0.15495078 0.389982 0.09175775 0.024308823 -0.15631516 -1.11694 0.8315615 0.1430776
0.1461178 0.7546442 0.0128252525 -0.8016257 0.17429353 -0.5648281 0.47480687 -0.14390783
-0.16871114 -0.24094367 -0.09473634 -0.2744794 -0.007596934 -0.045246787 0.21721801 0.16888155
-0.010865256 0.31383634 0.031894073 -0.12671123 0.12556782 -0.14649063 -0.14953025 0.11650198
0.019319942 0.01627699 0.025240157 0.2141861 0.08561765 -0.084385425 -0.29001155 -0.123762146
0.22959232 -0.257175 0.0385453 0.127846 -0.18097022 0.13860917 -0.13611196 -0.15997341
-0.11434224 -0.030414738 0.12361138 -0.08422313 0.026308142 0.12742707 -0.080277316 -0.15709877
0.014325816 -0.06047784 0.04485623 0.12603731 -0.00041682651 -0.24639127 0.105194785 -0.1699966
0.16775979 0.071542084 0.13752684 -0.12754035 0.09738434 0.17007926 -0.15744412 -0.11975058
0.029453544 0.07451468 0.22487152 -0.03890341 -0.2616935 -0.019257715 0.09535677 -0.14359896
-0.103407346 -0.14053154 -0.14001262 0.10127795 -0.032659624 -0.19757117 -0.1561541 -0.10638228
0.29168612 -0.04786713 0.26936078 -0.15273379 -0.010723752 -0.25976798 -0.13519059 -0.14793456
0.14651419 -0.11796488 0.002589135 0.060813192 -0.15573876 -0.014280084 -0.2617462 0.21313147
0.017218838 -0.024617452 -0.24530208 0.56966966 -0.25211132 0.37195992 0.2491455 -0.0538279
-0.2109624 -0.3263486 -0.13426638 -0.25590062 -0.09064087 -0.1349143 0.05088675 -0.13039927
00000000: 9547 ff3e c587 d33c ec9b 55be 61aa 2c3e
00000010: 4b64 30be 1ca0 053f af76 fe3e 473d c63e
00000020: 4c8c 22bd 7478 8f3f 1ee5 343e 0c3b 6ebe
00000030: 3bc8 ec3d 52c2 bdbe 5b21 4e3f 5a61 7e3e
00000040: 8855 19bf 04e2 443f 6dfb 213f 3bc5 babf
00000050: badb 553f 1878 65bf ce33 923e a2ed 91bd
00000060: 0cee 943d 0443 3d3e 00ee f73d d1cc 223d
00000070: 31f1 80bd 87d3 e33d 0521 963d eaf9 e0be
00000080: b553 453f 3c6a 003f 0cf3 9e3d e94c 153e
00000090: 8ab7 65be bd86 0d3f 5f17 9d3d f1d2 a93e
000000a0: 9771 c5be f58d 903e 2718 be3d a0fd 793d
000000b0: 8a07 ebbc b75f 9abf 14ef 1d3f 6360 5f3e
000000c0: 3924 adbf 544f 743f 20ca 273e 6cbd aebf
000000d0: 3946 133f d093 78bf 5d37 963e e657 39be
000000e0: 6372 02be 30c5 e6bb 7774 223e 67c2 bb3d
000000f0: 81ff 88be 6719 703e 3857 36bf c563 b1bd
00000100: d192 5bbd ac11 9e3d e8e6 b1bd adc7 9f3d
00000110: 2466 d8bd 550f f1bd bc51 643e 837e 09be
00000120: b09a b23d 186d 0f3e 697d d3bd d512 73bc
00000130: b349 a8bd 6c92 653e e8fc 1dbe 21ae e93d
00000140: 7085 05be 2c16 90bd 2880 ee3d ebbd 40be
00000150: 2e51 603d c535 34be 0f35 8e3b fe1c 98bc
00000160: 4eb2 a03d 15b6 123e 6f98 0a3d 4f95 803d
00000170: 95c6 933c f40f 2d3e 5c6d 9c3d bc8c 45bd
00000180: d9f7 f13d b1dc 8ebd fd90 993c 6eec cf3d
00000190: 01dd 8ebd db53 6cbd 3643 363e 499f 97bd
000001a0: 70f2 0abe 54ed 323e 52fb 183e ef77 ec3d
000001b0: abf5 cdbd 4031 2bbe 44f8 9e3d 0d98 31be
000001c0: 7cdf c63c 2e9b 61bd a9ee 2e3d ef6e aa3d
000001d0: ba60 7bbd 45e5 8fbc db6f 8f3c af04 34be
000001e0: b1e2 c23d 1e0c 86bd 2bee a33d b0f3 083e
000001f0: 9019 163b 486f b03c 967d a83d 81f5 15be
00000200: 3d59 283f 4829 b0be a2e8 6c3e f5cc a03e
00000210: ba9d 5cbe 03cd 2c3f 785a 1a3e c945 7bbd
00000220: 6bab 1ebe b9ab c73e 7deb bb3d 4c23 c73c
00000230: 1511 20be e4f7 8ebf 37e1 543f ef82 123e
00000240: e89f 153e 5d30 413f 0221 523c 5837 4dbf
00000250: 017a 323e 9398 10bf e319 f33e 935c 13be
00000260: 9dc2 2cbe f0b9 76be 2005 c2bd 9088 8cbe
00000270: b4ef f8bb b254 39bd 666e 5e3e 49ef 2c3e
00000280: 3004 32bc 28af a03e 5ca3 023d 97c0 01be
00000290: da94 003e a401 16be 751e 19be 9798 ee3d
000002a0: db44 9e3c 5257 853c 72c4 ce3c 9a53 5b3e
000002b0: 4e58 af3d 44d2 acbd 657c 94be 0277 fdbd
000002c0: 401a 6b3e 71ac 83be ade1 1d3d 10ea 023e
000002d0: 4250 39be 90ef 0d3e ef60 0bbe 12d0 23be
000002e0: 442c eabd 5428 f9bc f727 fd3d 2d7d acbd
000002f0: 2c84 d73c 3e7c 023e 6f68 a4bd 80de 20be
00000300: d4b6 6a3c 9db7 77bd 2bbb 373d ed0f 013e
00000310: 8289 dab9 fe4d 7cbe 5d70 d73d 9713 2ebe
00000320: 39c9 2b3e a884 923d d6d3 0c3e f099 02be
00000330: 7171 c73d 4229 2e3e 0839 21be cb3f f5bd
00000340: 8f48 f13c 279b 983d b844 663e 2f59 1fbd
00000350: b1fc 85be 5bc2 9dbc 694a c33d 9b0b 13be
00000360: 3bc7 d3bd 80e7 0fbe 785f 0fbe d06a cf3d
00000370: 19c6 05bd 1950 4abe dce6 1fbe f4de d9bd
00000380: e257 953e 5310 44bd a8e9 893e 3f66 1cbe
00000390: adb2 2fbc 4f00 85be 676f 0abe 287c 17be
000003a0: d107 163e 9297 f1bd 7aae 293b 4117 793d
000003b0: fb79 1fbe 03f7 69bc 9903 86be 233f 5a3e
000003c0: 850e 8d3c 8aaa c9bc 7830 7bbe dfd5 113f
000003d0: bc14 81be 8871 be3e ff1f 7f3e a57a 5cbd
000003e0: 8706 58be 2a17 a7be 207d 09be 6805 83be
000003f0: eca1 b9bd f926 0abe a06e 503d 6387 05be

layers.3.bias f4 [16]
-0.42176273 0.67545784 -0.50040287 -0.06494045 0.92289037 0.37898734 -0.37495863 0.23798561
-0.4485949 -0.30518317 2.1778445 -0.1940074 -0.49337 -0.20074007 -0.0058263442 -0.08503017
00000000: 49f1 d7be ceea 2c3f 671a 00bf 80ff 84bd
00000010: 8b42 6c3f a10a c23e 94fa bfbe 80b2 733e
00000020: 3bae e5be f840 9cbe ce61 0b40 e0a9 46be
00000030: fe9a fcbe ce8e 4dbe ebea bebb 4c24 aebd

layers.4.weight f4 [1, 16]
0.62200886 1.2880272 0.31996897 -0.0744674 0.8947538 -0.33315253 0.2101191 -0.33370534
-0.6713598 -0.28431946 -1.8182766 0.39163125 0.27496982 -0.19755 -0.11410221 -0.19982095
00000000: f93b 1f3f 13de a43f f9d2 a33e 5d82 98bd
00000010: 960e 653f f892 aabe 7629 573e 6ddb aabe
00000020: 3cde 2bbf 5292 91be 4abd e8bf e483 c83e
00000030: d8c8 8c3e 8c4a 4abe 6bae e9bd dd9d 4cbe
