AI_lab/lab6_neural_networks/my_model.pkl (torch, 12550 bytes, 9 tensors)

layers.0.weight f4 [16, 2]
000000 e5 74 38 c0 ba 09 01 bf 79 17 59 c0 c2 2f 1c c0
       -2.8821347 -0.50405467 -3.3920577 -2.440415
000010 1c c4 2d 3e bc 70 76 3e 86 4d b0 40 e1 a0 1e c0
       0.16969341 0.24066442 5.5094633 -2.4785693
000020 45 eb 8f c0 e1 d8 8c 40 05 5d d4 3d 91 40 e5 bf
       -4.4974694 4.4014745 0.103693046 -1.7910329
000030 7a 27 a7 40 1e 34 36 c0 45 88 82 3f 2c da d1 c0
       5.223569 -2.846931 1.0197836 -6.5578823
000040 cc e3 36 3e 94 fb 10 bf 07 b8 a6 3f 03 b7 9e bf
       0.17860335 -0.5663388 1.3024911 -1.2399601
000050 11 62 81 40 7e 11 cb 40 d9 35 90 c0 7b a7 0a 3f
       4.043221 6.3458853 -4.506573 0.54161805
000060 03 10 05 40 aa 00 0e 40 80 19 28 3c b9 e9 e3 be
       2.0791023 2.2187905 0.010259986 -0.44514254
000070 ef a1 be c0 4e 29 77 c0 30 8f 9e 3f 3c 45 9f c0
       -5.9572673 -3.861896 1.2387447 -4.9772015

layers.0.bias f4 [16]
000000 b4 21 f8 be a8 55 2b c0 b3 48 28 bf 61 f0 71 c0
       -0.48463213 -2.677103 -0.6573593 -3.7802966
000010 d7 ed 96 bf ae a6 c9 3e a5 a5 bb bf 49 1e 00 c0
       -1.1791333 0.3938498 -1.4659926 -2.0018485
000020 62 7c 2d bf 09 2e 9d 3e 75 09 14 c0 30 1f 46 c0
       -0.6776792 0.30699185 -2.3130772 -3.0956535
000030 68 2c 40 3f e3 83 e1 be 90 24 22 c0 01 60 43 c0
       0.7506776 -0.44045934 -2.5334816 -3.0527346

layers.1.weight f4 [32, 16]
000000 50 9c ab bf 6c 40 01 3f fc 05 af bd ad 21 5a bf
       -1.3407078 0.50488925 -0.08546063 -0.85207635
000010 dd a6 28 c0 14 ab 20 bf 19 82 4c 3f 51 ce 75 3f
       -2.6351845 -0.62761045 0.79886013 0.9601794
000020 c4 84 c2 3d db 0e 3c bf dd 4b 3a c0 ec ff f8 3e
       0.09497979 -0.7346017 -2.9108803 0.48632753
000030 11 8e 9a 3e 60 b3 9e 3d 6c 77 aa 3f 77 84 1c 3f
       0.30186513 0.07749057 1.3317695 0.61139625
000040 f7 f0 45 be 22 b7 e1 bd 44 69 10 be bb bf 12 be
       -0.19330202 -0.11021258 -0.14102656 -0.14330952
000050 80 33 50 bc b5 92 1b bc 9a 0b 29 be 81 39 be 3e
       -0.012707591 -0.009495427 -0.16508332 0.37153247
000060 06 5f 2a be 81 36 16 be de 51 4d be ec fd d4 bd
       -0.16637811 -0.14669229 -0.20050761 -0.10399994
000070 1d c6 00 3e a2 6b 56 be 69 69 6e 3d a6 41 66 3e
       0.12575574 -0.20939496 0.058205996 0.2248598
000080 78 60 57 be 4a 29 4a be 0e 84 22 be 38 1e 45 3e
       -0.21032894 -0.19742313 -0.15870687 0.19249809
000090 46 9a ba 3e 06 0f 89 be 1c 9d 48 be f6 1d 50 bd
       0.36445826 -0.26769274 -0.19591182 -0.050809823
0000a0 04 12 ef bd 02 a2 93 3d 6a 13 00 be 02 8a 3a 3f
       -0.11673358 0.07208635 -0.12507406 0.72866833
0000b0 d0 1e f0 be 90 30 a1 3d 74 36 94 be 0c d3 d2 bd
       -0.46898508 0.07870591 -0.28947794 -0.1029416
0000c0 fe cb f8 3e 29 99 16 3f f2 2b 51 be 02 e5 9a bf
       0.48593134 0.58827454 -0.2042692 -1.2101138
0000d0 67 c7 8e bf f4 00 00 bf 6f 83 b6 be af c7 56 3e
       -1.1154603 -0.50001454 -0.3564715 0.20974611
0000e0 e0 a8 9f bd f2 a9 bb bb ee 37 cf bf f2 44 7d 3f
       -0.07795882 -0.005727046 -1.6188943 0.9893333
0000f0 de 8d d5 3f 7c cb 33 be 99 1f 40 3f 4d 16 59 3f
       1.668392 -0.17558092 0.75048214 0.84799653
000100 4b 49 45 3f 42 c9 ec 3e 90 27 66 3d ad aa 9c be
       0.7706496 0.46247298 0.056190073 -0.30598965
000110 16 c1 9f 3f 38 1c 86 3f 36 55 87 bf 31 bc 99 3f
       1.24808 1.0477362 -1.0572879 1.2010556
000120 98 75 7e be 61 2b a6 3f 79 66 e8 be 02 a1 1c 3f
       -0.24849546 1.2981988 -0.4539068 0.6118318
000130 3c 6c 1f bf 80 52 c1 3c ae 84 29 3f ef 33 1e 3f
       -0.6227453 0.02359891 0.6621808 0.61797994
000140 fd 93 8f bf a5 8c 33 be 80 e6 8e 3b 95 9b 9f bf
       -1.1217037 -0.1753412 0.004360974 -1.2469355
000150 6e 75 b4 be e5 15 60 bf d1 f5 b9 3f 7f 4b fa bd
       -0.35245842 -0.8753341 1.4528142 -0.12221431
000160 9c 34 30 be 7d 71 92 bf 3c ae 30 bf 94 47 19 bf
       -0.17207569 -1.1440884 -0.6901586 -0.59874845
000170 74 50 ec be 96 bc 62 be 9f cb ff be df cd 42 bf
       -0.4615513 -0.22142252 -0.49960038 -0.76095384
000180 03 68 ec be 81 75 35 3d 98 2a 08 3d f9 51 18 40
       -0.46173105 0.044301514 0.033243746 2.3800032
000190 4a be 91 3f e0 d6 0c bf 85 4d 9a 3f ec 79 6e 3c
       1.1386197 -0.55015373 1.2054907 0.014555436
0001a0 90 5e 4d be 32 c9 16 bf ea 91 90 3f 7e b8 35 bf
       -0.20055604 -0.5890075 1.129453 -0.7098464
0001b0 bb 85 83 bd 38 ac 24 3d ca 5e 84 be 25 05 92 3f
       -0.064219914 0.040203303 -0.25853568 1.140782
0001c0 92 87 e1 3e 82 5a c4 bd 50 48 6a 3e cf 3b 31 3f
       0.44048744 -0.095875755 0.22879148 0.69231886
0001d0 48 43 fb be dc 91 dd be a9 bf ba 3f 5e a7 13 40
       -0.4907477 -0.43275344 1.458974 2.3070903
0001e0 ee f4 0e 3e a8 01 fe 3c 5c 69 91 3d 06 90 f9 be
       0.13960621 0.03100665 0.07100174 -0.48742694
0001f0 1d 7b c4 3f 6c c4 97 3d 4d 4f 0b 40 e5 cb b7 3d
       1.5350071 0.074105114 2.1767151 0.08974437
000200 68 5e 4a 3d 83 35 be 3d 78 c6 d8 3d da a3 13 3e
       0.04940644 0.0928755 0.1058473 0.14417973
000210 74 6d ba be de 01 97 bb fc 80 4f be 8b 7e 85 bd
       -0.3641163 -0.004608377 -0.20264047 -0.06518277
000220 ee c7 01 3e 88 42 43 be 40 ee a6 3d ed 80 aa 3e
       0.12673923 -0.19068348 0.08150911 0.33301488
000230 fb e0 21 be 00 a4 58 bb 66 db bf 3e 9e 3a dc 3c
       -0.1580848 -0.0033056736 0.37472075 0.02688342
000240 75 54 15 be fe 43 08 3e 80 05 e5 bd dd 41 20 bd
       -0.14582999 0.13307187 -0.1118269 -0.039125312
000250 6f aa 82 be a7 05 8d be 0d 46 bd bf 5a 86 1b 3e
       -0.25520656 -0.27543375 -1.4787003 0.1518797
000260 54 f9 68 be c8 b4 1c 3d 0a 2a 68 3f 0e 96 1c 3e
       -0.22751361 0.038258344 0.90689147 0.15291616
000270 3e 5b 2f be f0 5c 5c 3d fc 5b 6c be b2 e7 3f 3e
       -0.1712465 0.05379957 -0.23081964 0.18740728
000280 6c a8 c7 3d c6 e1 6a be ac bd 32 be 84 76 cf 3f
       0.09748921 -0.22937688 -0.17455167 1.6208043
000290 51 c4 48 3e 3f 5a 49 bf 8e 81 7b 3f d4 5e 4b bf
       0.19606139 -0.7865333 0.9824456 -0.7944157
0002a0 f0 97 6a be db 66 ed be 74 19 28 3f c0 20 4f 3c
       -0.22909522 -0.46367535 0.6566384 0.012642086
0002b0 ba a6 0e bd bc fa ed bd aa 0d 76 be c3 e7 7f bc
       -0.03482697 -0.116200894 -0.2402865 -0.015619221
0002c0 4a 84 05 3f f9 5d e0 be d8 54 64 be d2 11 01 bf
       0.5215498 -0.43821695 -0.2229799 -0.50417817
0002d0 33 ce 88 bf b8 9d c9 3d fd 17 51 bf 5b 1e 0a 3f
       -1.0687927 0.098445356 -0.8167723 0.5395257
0002e0 de 6f 22 be 9f 85 1d 3e 53 17 b3 bf 36 8b a6 be
       -0.15862986 0.15383004 -1.3991493 -0.32528085
0002f0 7e 13 8d 3f 08 4c a5 bd 41 cd 15 bf 17 91 44 bf
       1.1021574 -0.080711424 -0.5851632 -0.7678389
000300 44 8c 4d 3f fd 69 f2 bd fc f0 00 be bb 03 ba bf
       0.80292153 -0.11836622 -0.12591928 -1.4532388
000310 cc 32 19 3f d2 75 16 3f ba e5 33 3d ec a3 90 3f
       0.59843135 0.5877353 0.043920256 1.1300025
000320 3e 07 49 be 68 98 5b 3f fd 11 b3 bf 94 6f 5a be
       -0.19631669 0.8577943 -1.3989865 -0.21331626
000330 bd 84 56 3f 78 21 fe bd f7 e7 45 3f 1f a1 92 be
       0.8379629 -0.124087274 0.77307075 -0.2863855
000340 16 d6 13 be b0 f8 0c bf f8 b2 18 be ac ca 24 bf
       -0.14437136 -0.55066967 -0.14912021 -0.6437175
000350 98 86 f0 3d 4c c5 7d 3e 69 29 33 be da ff 99 3c
       0.11744422 0.24782294 -0.17496265 0.018798757
000360 e2 e6 5b be aa 3d cf 3d 0a 43 2e bf c2 f3 35 bf
       -0.21474794 0.10119183 -0.68071043 -0.7107507
000370 71 16 49 be a0 e8 b9 bd d5 e0 75 3e bc e9 fc be
       -0.19637467 -0.09077573 0.24011548 -0.49397075
000380 94 1f 1c be 3f be 7c 3e 24 0f 0c be 66 7c b6 3d
       -0.15246421 0.24681948 -0.1367765 0.08910446
000390 c4 bd 94 be f8 a4 0b bd 75 43 c0 bf ab 9d 44 be
       -0.2905103 -0.034092873 -1.5020586 -0.1920077
0003a0 bc da 66 be 20 b5 9a 3e df 60 a1 3f 57 86 64 3e
       -0.22544378 0.30216312 1.2607688 0.22316872
0003b0 94 52 b6 be ac f4 19 3e ca fc b8 bd da e7 a4 3d
       -0.35609877 0.15034741 -0.09032591 0.08052035
0003c0 89 32 56 be bf 0c 99 3e cc 06 a2 3d b8 2a 86 3c
       -0.20917715 0.29892537 0.07911453 0.016377792
0003d0 d8 f8 b7 bc 8e 1e 58 3e 9d 94 75 3d b2 47 d4 bb
       -0.022457525 0.21105406 0.05995618 -0.0064782733
0003e0 70 89 17 3e 58 40 04 be b9 ad 39 3d 29 b7 88 3e
       0.14798522 -0.1291517 0.04533169 0.2670224
0003f0 73 5a 0f 3c 64 ea 14 be b3 6d 2f 3e 61 1d 19 be
       0.008749592 -0.14542538 0.1713169 -0.14952613

layers.1.bias f4 [32]
000000 65 cb e4 3f fb b3 df be 97 86 40 bf 7a c7 e0 3c
       1.7874571 -0.43692002 -0.7520537 0.027438868
000010 87 23 e0 bf 96 f0 ed 3f 46 e7 82 c0 23 17 3e c0
       -1.7510842 1.8589046 -4.0907316 -2.9701622
000020 f3 d7 1b bf 2c 0f f8 bf 0b 76 23 c0 32 fd 7b 3f
       -0.6087639 -1.937963 -2.5540798 0.9843322
000030 85 c2 c0 bf f7 de 2a 3f cb 78 1e c0 8d 7c c1 be
       -1.5059363 0.6674647 -2.4761226 -0.37790337
000040 9b 09 ee 3e b9 77 6d bf 9d 60 90 40 22 43 21 be
       0.46491703 -0.9276081 4.5117936 -0.15748265
000050 05 6a db bf 8f 3f 8c be 5d ca ad be c9 20 f9 be
       -1.714173 -0.2739224 -0.33943453 -0.48657826
000060 f6 0e 83 c0 2d 67 43 bf 76 25 ed bd 72 64 c1 3e
       -4.0955763 -0.7632931 -0.11579411 0.37771946
000070 2b 63 1c c0 68 42 08 bf 0c 49 43 bf 78 a7 f5 bf
       -2.4435527 -0.5322633 -0.76283336 -1.9191732

layers.2.weight f4 [32, 32]
000000 9c 8a 28 be c5 79 5c 3e 6a c6 33 be 39 76 15 bf
       -0.16459125 0.21530826 -0.17556158 -0.5838352
000010 aa 1f 18 bf a4 4d cc bd d1 ab 25 bf 82 19 24 3f
       -0.59423316 -0.09975746 -0.64715296 0.6410142
000020 d2 dc 30 3e 15 bf ff bd 31 3c 9e be c1 96 48 bf
       0.17271736 -0.12487618 -0.30905297 -0.7835503
000030 38 4c 81 bd 8c 12 b4 3b 7a 30 a5 be 50 17 73 3d
       -0.06313366 0.005495375 -0.32263547 0.059348404
000040 91 87 8c 3e 86 9b ad 3e b1 83 09 bf 00 08 2d bd
       0.2744718 0.33907717 -0.5371657 -0.042243958
000050 e0 f6 b3 3e 0c c5 73 be f7 a6 e9 3d 5e ec 50 bd
       0.35149288 -0.23805636 0.11408799 -0.051006667
000060 5a 22 31 bf dd 5d 4e bd 2c 8a 9d 3d c8 b5 eb bc
       -0.6919304 -0.050382484 0.0769237 -0.028773203
000070 6c 57 bf 3e dd 4b a8 bd 80 65 1f 3e ae 60 d2 3d
       0.37371385 -0.08217595 0.15566063 0.102723464
000080 d0 c7 52 3f df c3 a3 bd d7 47 58 bd a6 d2 89 3e
       0.8233614 -0.07996344 -0.052802887 0.26918525
000090 21 a7 f7 3e df e5 16 bf 54 f0 8f be 6a c1 1a c0
       0.48369697 -0.58944505 -0.28113043 -2.418055
0000a0 9e c8 02 3e 22 44 6c be 27 eb 8c be 84 32 54 3f
       0.12771842 -0.23072866 -0.27523157 0.8288958
0000b0 0e 83 85 bd 97 ac bd 3e b7 42 3e be 36 40 06 3d
       -0.06519137 0.37045738 -0.18580137 0.03277608
0000c0 1e 33 3e bf 2a e6 e4 be 9b 07 8d 3e c9 06 95 bd
       -0.7429675 -0.4470685 0.27544865 -0.07276685
0000d0 75 9e 96 be 3f 26 b8 be 4f 35 78 3c 03 ac 88 be
       -0.29417768 -0.3596668 0.0151494285 -0.26693735
0000e0 96 d8 7b bf 95 85 eb 3e 33 39 42 bd e7 be 03 bf
       -0.9837736 0.46000353 -0.04741783 -0.5146317
0000f0 ca 3f a6 3e 7e ec 92 3c 94 c7 32 bf 6b 28 86 bf
       0.32470542 0.017935034 -0.6983578 -1.0481085
000100 2f 27 18 bf 5e b2 f3 bd ea 50 d5 3d e0 aa 28 be
       -0.5943479 -0.11899255 0.10415824 -0.16471434
000110 ba c1 aa 3d 00 df ff 3c 96 84 fe 3d 12 74 31 3e
       0.08337732 0.031234264 0.124276325 0.17329434
000120 20 f4 0c 3e 07 d1 e8 bd 51 d4 ac 3e 48 fe 62 3d
       0.13765001 -0.11367994 0.33755735 0.055418283
000130 b6 2e 14 be c7 e7 08 be 5d 15 bc 3d 57 4c 25 3d
       -0.14470944 -0.13369666 0.09183762 0.040356006
000140 22 61 32 3d 50 55 69 3e 44 2a 3e 3d f4 0e 10 be
       0.043549664 0.2278645 0.046427026 -0.14068204
000150 94 ca 42 be 29 9b 2c be 4c 16 52 3d 61 8f 8f bb
       -0.1902259 -0.16856064 0.051290795 -0.004381106
000160 aa 5d c5 3e 97 9c 0d 3e 3f df 26 bb 5e 15 f9 bd
       0.38548023 0.13829266 -0.0025462655 -0.121622786
000170 3e ad 4e 3d 3e d5 0a be a6 fd 10 3d a1 b0 9b 3b
       0.050458185 -0.13557908 0.035398148 0.0047512804
000180 a1 55 b3 3e 2e d5 26 3e 6b 1a dd 3d d1 2d 7d bd
       0.35026267 0.16292259 0.107960545 -0.061811272
000190 95 84 a0 3e 2a dc 83 3d 19 cd b0 be 60 8f 32 bf
       0.31351152 0.06438477 -0.34531477 -0.6975002
0001a0 4c 6f d6 3d 4e 29 a9 bd a1 ee 87 be d1 23 96 bd
       0.10470447 -0.08259831 -0.26549247 -0.0733105
0001b0 87 00 a0 3e 2d c0 99 bd 56 52 67 bc 2b 35 3d 3e
       0.31250402 -0.07507358 -0.0141187515 0.18477313
0001c0 41 58 06 3e 70 9c 50 be 3c 10 fc bd c9 a7 17 3e
       0.13119604 -0.20372176 -0.12307784 0.14810099
0001d0 85 d5 7f 3e f1 6a 1e be e5 4c 03 be 2a 1d c8 bd
       0.24983795 -0.15470482 -0.12822302 -0.097711876
0001e0 cb 25 e5 be e3 b1 24 3e 91 88 ef 3c 4e 60 70 bd
       -0.44755396 0.16083483 0.029239925 -0.058685593
0001f0 39 86 1e 3e 64 49 00 3e 66 70 5f bd 50 d6 ed be
       0.1548089 0.12527996 -0.05455055 -0.4645257
000200 a2 4d 9e be 20 f2 09 3e 13 f5 ed 3c 3a 04 50 bc
       -0.30918604 0.1347127 0.029047525 -0.01269632
000210 9b e2 df 3d 73 d4 2e 3d 63 04 2b 3d 47 88 4d be
       0.109318934 0.042683076 0.04175223 -0.20071517
000220 89 07 09 3e 3d 00 14 3e 73 55 ee bc 79 28 ff bd
       0.1338178 0.14453216 -0.02909348 -0.124588914
000230 c2 16 b3 3d 20 db 29 3e c1 b5 10 3e 2b b7 2a 3d
       0.08744575 0.16587496 0.14131834 0.04167859
000240 96 cb ba bc ab f0 b3 bd 88 98 ad 3d 2f b9 e1 bd
       -0.022802155 -0.08786138 0.08476359 -0.11021649
000250 9f 4c f4 bd 95 71 9e 3c df 14 d1 bd 54 97 3b be
       -0.11928677 0.01934127 -0.10209059 -0.18319446
000260 77 82 5b 3e 56 46 6b 3e 03 a5 92 3d 77 68 65 bc
       0.21436487 0.2297605 0.0716038 -0.014001957
000270 e1 d9 eb 3c 84 3e 26 be 1b 39 d5 bd 86 db f8 3a
       0.028790416 -0.16234785 -0.10411283 0.0018986322
000280 26 fb a8 3e 8e 22 ad bc 77 62 0d 3e 8f 4b a5 bf
       0.3300411 -0.021134641 0.13807093 -1.2913684
000290 1b 21 57 3f ee ad c3 3f 1f ac e6 be b1 00 e7 bf
       0.8403489 1.5287454 -0.45053193 -1.8047086
0002a0 67 49 b4 bd 0c 5a 0f be ac 8f 25 be 56 af 7d bf
       -0.08803063 -0.13999194 -0.16168088 -0.99095666
0002b0 87 cb 2d 3f 3f 87 f5 3d 4d 7c 75 be d1 8d a7 3c
       0.67888683 0.11988687 -0.23973198 0.020453366
0002c0 eb 3e 8c 3e b1 94 ac be 1e 03 af 3e 1a ae b5 3d
       0.27391753 -0.33707193 0.34182066 0.08871098
0002d0 64 be 29 be 59 fb 22 bf 2a 67 c8 bd 82 ce 64 bf
       -0.16576535 -0.63664776 -0.09785302 -0.89377606
0002e0 90 73 08 c0 7d 5c 83 3d 54 74 08 be 7c 90 0b bf
       -2.1320534 0.06414125 -0.13325626 -0.5451734
0002f0 64 e0 27 3f 7d bd 12 3d 7d 30 0b 3f ff 2b 89 bf
       0.6557677 0.03582524 0.5437086 -1.0716552
000300 77 19 4f 3f d1 3d 1e bb 34 0a f8 3e f5 b1 2e 3f
       0.8089823 -0.0024145732 0.48445284 0.6824029
000310 26 49 cb 3e 7d 0e ee be 0c d7 be be 90 33 e1 3c
       0.39704245 -0.4649543 -0.37273443 0.027490407
000320 66 b2 c6 3e 66 79 33 bd 6d 28 71 bd ca d2 e8 be
       0.38807982 -0.043816946 -0.058876444 -0.4547332
000330 74 c7 4b 3d 89 7a 9f be a1 64 0b be 5d e9 4e 3e
       0.04975076 -0.31148174 -0.13612606 0.20206209
000340 fc 2a 88 3e ee 43 c1 bd 72 ea be bf c2 1e 97 3d
       0.26595294 -0.09436785 -1.4915297 0.073789135
000350 05 e7 15 3f 0d d7 a0 bb 1e 86 9d 3e 80 b2 05 3f
       0.5855563 -0.0049084486 0.30766386 0.52225494
000360 62 55 4f 3e cf 97 5b 3d ed 34 66 bd 1e 67 92 be
       0.20247415 0.053611573 -0.056202818 -0.28594297
000370 f8 fe 0b 3f 7b 34 ef 3d 5e f9 fe 3e 37 25 07 3f
       0.54685926 0.11679932 0.49799627 0.5279116
000380 34 81 28 3f 02 bb 1d bc 8d ea 10 be 63 49 68 3d
       0.6582215 -0.009627106 -0.14151974 0.056710612
000390 0b 17 10 3f 62 68 28 3f 1a f8 f0 be 2a 29 bc bf
       0.5628516 0.65784276 -0.47064286 -1.4700062
0003a0 03 56 c3 38 59 aa c3 bd ff ed 5a be 67 6f 3f be
       9.3143455e-05 -0.095539756 -0.21379851 -0.1869484
0003b0 61 40 0b 3f e6 7f c9 3d 7f d7 09 be 3a 81 56 bd
       0.5439511 0.09838848 -0.13461111 -0.052369334
0003c0 7f 39 1c bd 19 45 11 bf dc 78 9d be fa a0 04 be
       -0.03814077 -0.5674606 -0.3075627 -0.12952033
0003d0 4d 1c 6f 3e 2c da a1 be 71 63 a4 bc db 1d a5 be
       0.2335064 -0.31611764 -0.020066949 -0.3224934
0003e0 8d a2 89 bf 48 15 d5 3d 6a 49 12 be e9 14 67 be
       -1.0752732 0.1040445 -0.14285818 -0.2256657
0003f0 73 84 ce 3e 05 b5 fb 3d 65 19 f0 3d 7a ec 1f bf
       0.40335426 0.12290386 0.117235936 -0.6247021

layers.2.bias f4 [32]
000000 2b b8 93 3f fe 65 14 be dd df 69 bb f2 98 2e 3e
       1.1540579 -0.14492032 -0.0035686411 0.17050532
000010 9d 83 02 be d6 72 ec 3f 4f 6b 2e c0 00 a0 3d 3f
       -0.12745519 1.8472545 -2.7252996 0.74072266
000020 df fc 22 bf e5 14 1c c0 36 ed 08 be f6 86 15 3f
       -0.636671 -2.4387753 -0.13371739 0.5840906
000030 cb b0 1e 3d 4f c7 c9 be b8 bf 99 3f 65 96 86 be
       0.03874282 -0.39409873 1.2011633 -0.26286617
000040 17 01 0c 3c 12 d3 e3 be 09 78 7d bf ac e3 30 c0
       0.008545182 -0.4449697 -0.99011284 -2.763896
000050 a6 0a 5b bf 64 9d e5 bf 4f 34 88 3f 1a 25 21 be
       -0.85563123 -1.7938657 1.0640963 -0.1573681
000060 c3 f4 c2 bd 77 2f 99 3e 3a b6 85 3d 13 15 8b 3b
       -0.09519341 0.29919025 0.065288976 0.0042444556
000070 b5 49 3e be 5d 12 0a be f0 d0 f2 bd af c2 17 bf
       -0.18582805 -0.13483568 -0.11856258 -0.5928144

layers.3.weight f4 [16, 32]
000000 e5 7c 22 3f 7d e1 17 3f 77 e5 2d 3d a8 cc 49 3d
       0.63471824 0.5932844 0.042455163 0.04926744
000010 a0 df cd 3d 5e db 05 3f 4b 98 26 3f 9a 73 84 be
       0.10052419 0.5228785 0.6507613 -0.25869447
000020 45 e9 89 be 21 a0 5d 3f ee 6d 56 3e 9e 97 bd be
       -0.26935783 0.8657246 0.20940372 -0.37029737
000030 93 ce e1 3d 1a 71 25 bf b4 77 4e 3f 9e 20 06 3e
       0.11025729 -0.64625704 0.806514 0.1309838
000040 94 22 a5 bf 2f d7 3a 3f 9b 86 ba 3e 4a a6 a9 bf
       -1.2901177 0.72984594 0.3643082 -1.3253872
000050 22 f4 43 3f 45 a4 40 bf 69 49 21 3e 4e 5f 12 3c
       0.7654439 -0.75250655 0.1575066 0.008933855
000060 7f ac f1 3b c6 63 94 3e a7 6e 8b bc 40 4c 07 3e
       0.0073752995 0.2898237 -0.017020537 0.13212681
000070 f2 60 54 be c6 42 a6 3e ed 4b 1b 3d 98 48 8e be
       -0.20740107 0.3247282 0.037914205 -0.2778976
000080 45 00 7a 3e 5b af ec 3e 9c bd 7b 3d 74 da 44 bd
       0.24414165 0.46227536 0.061460122 -0.048059896
000090 e2 fc d8 3d 6e 40 f0 3e 88 87 8f 3e dd 07 07 be
       0.105951086 0.46924156 0.2803309 -0.13186593
0000a0 56 c2 fb be b3 5b be 3e 72 8e e7 3c 26 10 b4 3e
       -0.49171704 0.37179336 0.028266165 0.3516857
0000b0 71 ba 1a 3c b5 30 a3 bf 81 d8 37 3f 13 b0 32 3e
       0.009443865 -1.2749239 0.71814734 0.1744998
0000c0 26 d0 97 bf f8 ca 1b 3f d9 ee 7e 3e 2b 5f ce bf
       -1.1860397 0.6085658 0.248958 -1.6122793
0000d0 10 20 ca 3e c4 06 8c bf 18 db ef 3e 9c 1e 3e bd
       0.39477587 -1.0939565 0.46846843 -0.04641591
0000e0 e7 56 6b bd c1 1f ae bc 5e a8 81 be a4 34 f8 3d
       -0.057455923 -0.021255376 -0.25323766 0.121194154
0000f0 cf 60 c1 be de 3f 98 3e 49 be 07 bf dc 6f 6e be
       -0.37769172 0.29736227 -0.5302473 -0.23284858
000100 26 87 07 be 20 21 89 3b 2b f7 21 be 30 d0 75 3d
       -0.13235149 0.004184857 -0.15816943 0.060012996
000110 df 70 1b be de 46 26 bd 2d 6d 51 3e 87 b4 a7 be
       -0.15179776 -0.040594928 0.20451804 -0.3275492
000120 63 d3 1b 3c 70 f0 40 ba cc 71 31 be 67 bb 0a bd
       0.009510848 -0.0007360047 -0.17328566 -0.033870127
000130 a4 6e 05 be 36 93 67 3e b3 67 6a be 0a f0 b2 3d
       -0.13030487 0.2261475 -0.2289112 0.0873719
000140 4f ca c6 39 60 3d 92 3c da 9d 3f 3d fe ce e4 bc
       0.00037916235 0.017851532 0.0467814 -0.027930733
000150 25 c1 60 bc f8 42 aa bd 6a 01 6c be 1f 45 94 bc
       -0.013717924 -0.083135545 -0.23047414 -0.018099366
000160 3f c7 c1 3d 85 61 be 3d 34 95 32 bd 4c e4 e8 3c
       0.09461831 0.09295944 -0.043599322 0.028429173
000170 45 98 fc 3b bd 75 f8 3d e5 91 83 3d 6a c4 86 bc
       0.0077085816 0.12131832 0.064243115 -0.01645108
000180 d3 b9 83 3d e6 25 8c bd 18 4b 85 3c 8c d3 dd 3d
       0.064319275 -0.06843166 0.016271159 0.10831365
000190 65 54 9b bd 3a f2 3e bd fe ae 55 3e 1f a3 8f bd
       -0.07584456 -0.046617724 0.20867535 -0.07013535
0001a0 98 20 05 be c4 75 48 3e 37 9f 17 3e 87 8c a5 3d
       -0.13000715 0.19576174 0.1480683 0.08083444
0001b0 72 0f c7 bd 66 0a 1a be 63 52 c9 3d bb 6a 2d be
       -0.09719743 -0.15043029 0.09830167 -0.16935246
0001c0 85 37 74 bc 83 8a d1 bc a6 ca 52 3d 29 98 96 3d
       -0.014905815 -0.025578743 0.05146279 0.07353241
0001d0 e7 7d e3 bd e3 02 af bc c8 21 80 3c d2 8a 34 be
       -0.11107998 -0.021363681 0.015641108 -0.17631081
0001e0 06 02 d3 3d 82 fa 7d bd c1 11 aa 3d ed 57 0b 3e
       0.1030312 -0.06200648 0.083041675 0.1360776
0001f0 c9 cd 5d 3b 0d c3 b9 3c 82 6e a1 3d b6 23 0f be
       0.0033844581 0.022676015 0.07882406 -0.13978466
000200 22 27 bc 3e f3 66 f1 be 0b 3a 1b 3e ea 2a 0c 3e
       0.36748606 -0.47148857 0.1515886 0.13688245
000210 98 2f b7 3d 30 39 85 3f 24 40 ca 3d 5f ec f3 3e
       0.08944625 1.0408077 0.09875515 0.47641274
000220 a8 d4 e0 3e 33 8d be 3e ca 80 82 3d 36 41 de 3c
       0.43912244 0.372171 0.06372221 0.027130704
000230 f4 49 1c be c8 0c b5 bf 74 72 2c 3f 5d d8 01 3e
       -0.15262586 -1.4144526 0.6736214 0.12680192
000240 ea c1 4c 3e c2 08 98 3e 5f 3d 5a 3c f0 01 39 bf
       0.19995847 0.29694182 0.013320296 -0.7226858
000250 2b 8a a3 bd 11 f1 23 bf 1f a2 4e 3f 45 50 bd bd
       -0.07985338 -0.64039713 0.8071613 -0.09243826
000260 00 b6 e0 bd a2 f4 ad 3c e2 d4 cd 3e 65 3c 3b be
       -0.10972214 0.021234814 0.4020148 -0.18284757
000270 9c 96 fd bc f5 67 77 3d 13 de 18 be 96 de 0d 3e
       -0.030955605 0.060401876 -0.14928465 0.13854441
000280 e0 1b 35 bd 1d 07 07 3e c2 7a 94 3d ab 17 43 bd
       -0.044216037 0.13186307 0.07249977 -0.047629993
000290 c0 8c ab 3d 90 d8 9f bd 3f d6 c4 bd 61 d8 29 3e
       0.08376455 -0.07804978 -0.09611177 0.16586448
0002a0 4e 96 6d bd d1 5c 56 3d 21 42 a2 3d ca 34 89 3d
       -0.05800467 0.05233461 0.07922769 0.06699522
0002b0 44 85 e9 3d 21 18 b2 3c 69 b2 1d be 34 44 cf bd
       0.114023715 0.021740021 -0.1540009 -0.101204306
0002c0 8c 37 aa bc 43 99 1f be 60 49 4d 3d ff 30 99 bd
       -0.02077844 -0.15585808 0.050118804 -0.074800484
0002d0 bd ed 98 be 45 7b 2b 3d e0 a7 9a bc d8 24 21 be
       -0.2986888 0.041865606 -0.018878877 -0.15736711
0002e0 b1 a3 db bd 66 3c 51 bd 5d fc 06 3d d4 f8 14 be
       -0.10724581 -0.05108299 0.032955516 -0.14548045
0002f0 a0 e2 d9 3c ff 75 9d 3d 70 0c 1e 3d 94 98 58 be
       0.026597321 0.076885216 0.03858608 -0.21151954
000300 b8 8f 34 bd 8e 54 d8 bc ab 0b ca 3c 84 64 ed 3d
       -0.044082373 -0.026407506 0.024663767 0.115914375
000310 f4 29 1a bd ec be 2e be 95 03 85 bc fb 88 7c be
       -0.037637666 -0.17065018 -0.01623706 -0.24661629
000320 12 3b df 3d a7 a3 ba bd 2e 10 d1 3d 60 84 7f be
       0.10899939 -0.091132455 0.10208164 -0.24952841
000330 dd d5 93 3d 80 f8 02 3e 5f 09 5d be 78 4f 1b be
       0.072185256 0.12790108 -0.21585606 -0.15167034
000340 82 af db 3c ed d0 07 3e 29 d9 38 3e ee b5 6f bd
       0.026817087 0.13263293 0.1805159 -0.05852311
000350 29 47 a9 bd 6c 07 29 bd 91 19 bc 3d 59 08 13 be
       -0.08265526 -0.041266844 0.09184564 -0.14358653
000360 34 ed 83 bd 21 f3 12 be 37 43 f6 bd 77 65 d2 3d
       -0.06441727 -0.14350559 -0.12024539 0.10273259
000370 2f 90 02 bd e4 b9 48 be 4c ce 20 be 46 1d 43 be
       -0.031875785 -0.19602162 -0.15703696 -0.19054136
000380 5b 72 ca 3d 09 28 9d bd fc 34 fd 3e 4f a5 a3 be
       0.09885093 -0.07673652 0.49454486 -0.31962058
000390 65 4d 1b 3e f4 5b 9b be 58 ab a0 be 6c db 54 be
       0.15166242 -0.30343592 -0.31380725 -0.20786828
0003a0 44 ba 47 3e 29 71 3d be f0 55 86 3d a5 87 01 be
       0.19504648 -0.18500198 0.0655936 -0.126494
0003b0 a5 b4 f8 bd 4b 52 05 3e a0 64 6f be 36 59 27 3e
       -0.1214383 0.13019674 -0.23378229 0.16342625
0003c0 42 b7 0b bc 4c 36 99 ba 37 91 94 be 34 2d 11 3f
       -0.008527579 -0.0011689155 -0.2901704 0.567096
0003d0 81 87 9b be 5b 4f b2 3e 18 07 5f 3e 56 a1 4d bd
       -0.3037682 0.34826168 0.2178005 -0.05020269
0003e0 de 56 c0 bd a2 71 9a be 45 45 b8 bd 86 ad 86 be
       -0.093915686 -0.3016482 -0.08997587 -0.26304263
0003f0 b5 ad b9 bd fc 34 cb bd e5 43 72 bb 79 a5 41 be
       -0.09066335 -0.09922215 -0.0036966738 -0.18910779

layers.3.bias f4 [16]
000000 01 d8 0d bf 4f b8 21 3f df 14 1d bf 2e c5 e0 bd
       -0.5540772 0.6317186 -0.6135997 -0.10975109
000010 cc 06 87 3f 22 29 9d 3e 62 20 ac be 74 60 87 3e
       1.0548949 0.30695444 -0.33618456 0.26440775
000020 4a fe 5c be 69 80 e1 be b4 aa 09 40 f8 f6 a2 3d
       -0.21581379 -0.44043282 2.151044 0.07957262
000030 dd 27 bd be 66 7b 3f 3e 38 c0 a2 3d 50 cf e0 bd
       -0.36944476 0.18699417 0.07946819 -0.10977042

layers.4.weight f4 [1, 16]
000000 16 0f 4b 3f 3e 96 aa 3f 24 fb 8a 3e 53 10 e4 bd
       0.79319894 1.33271 0.2714473 -0.11135926
000010 6b fb 82 3f 40 f4 03 be 7e 73 42 3e 3e 53 cb be
       1.0232977 -0.12886143 0.1898937 -0.39711946
000020 d3 7f 69 bf bc 2c cf be 7a 5e ed bf 4d 6c d0 3e
       -0.9121067 -0.40463817 -1.8544457 0.40707627
000030 d2 aa 6b 3e a0 67 43 bf bc 0d b8 be 5d a3 47 be
       0.23014382 -0.76329994 -0.35947978 -0.19495912
