AI_lab/lab_7_reinforcement_learning/saved_models/FrozenLake/QAgent/run-2024-06-04_13-24-08/model.npy (npy, 928 bytes, 1 tensors)

array f8 [25, 4]
0	0x0000000000000000	0.0
1	0x0000000000000000	0.0
2	0x0000000000000000	0.0
3	0x0000000000000000	0.0
4	0x4086cb19f778c366	729.3876790461188
5	0x407f150a38af0e6d	497.31499546414744
6	0x40783b28f59406f2	387.69749982665155
7	0x408be76b02969882	892.9272510304729
8	0x406b3f8513ccc642	217.98499479289063
9	0x406a3863aaeafc90	209.762166460951
10	0x40614e9979b08a0c	138.4562347839386
11	0x0000000000000000	0.0
12	0x405af167341bffaf	107.77192404493574
13	0x405a3a59c93256aa	104.91173009792206
14	0x405127a680fea03d	68.6195375906545
15	0x0000000000000000	0.0
16	0x403ffa1156adb57f	31.976827065858284
17	0x403fd05f3396b7aa	31.81395265988946
18	0x404b33e7f230e1f3	54.40551593195769
19	0x0000000000000000	0.0
20	0x0000000000000000	0.0
21	0x0000000000000000	0.0
22	0x0000000000000000	0.0
23	0x0000000000000000	0.0
24	0x40839a09380fb44b	627.2545014597794
25	0x4071479a6ee4bffc	276.47520341258473
26	0x4069be396454cdc6	205.9445058494877
27	0x0000000000000000	0.0
28	0x406a8e3eb936abbf	212.44515667608172
29	0x406642ad4721dd7e	178.0836520825796
30	0x40625a547bb099ee	146.822812886166
31	0xbfe0000000000000	-0.5
32	0x405e9438296a9776	122.31592784318295
33	0x404bf4cee9e16552	55.912564501816306
34	0x404b213c9fac27d3	54.25966258913072
35	0x0000000000000000	0.0
36	0x404b7575f059a5d8	54.91766170861564
37	0x4034fc3f458c8e79	20.985340449157295
38	0x403c20666a340230	28.126562726685904
39	0x0000000000000000	0.0
40	0xc0842746d206d55e	-644.9095802816262
41	0x4063b04889f0e619	157.5088548378997
42	0x403393265b83b164	19.5748040386692
43	0xc059ad260e56a74e	-102.7054477545
44	0x407d98870532b2ea	473.53296394161464
45	0x406f741749041720	251.6278424339189
46	0x40672d98e324ec28	185.4249129983084
47	0xbfee666666666666	-0.95
48	0x40706d6020908d88	262.8359685560795
49	0x405f11493a5ce31c	124.27009448119173
50	0x40460cef329b4caf	44.10104973395334
51	0xbff056fa9419a386	-1.0212350640451588
52	0xc052bc60c2da27e1	-74.94340583137775
53	0xc08bd319f4b04587	-890.3876737376421
54	0xc05c78880b9bd00c	-113.88330354896624
55	0xc05e1a351f20f9cc	-120.40949228496828
56	0x40056279c4d18c48	2.673083818097016
57	0xc037edff9b69827c	-23.92968150449677
58	0xc015c459342a9742	-5.4417465353961365
59	0xc029b33006fb4e3c	-12.849975794007257
60	0x4063971059c45842	156.7207459292277
61	0x4067416e4c14b981	186.04471401260164
62	0x406f459b0833b7dd	250.17517480946745
63	0xc0116637edfc4510	-4.349822729608846
64	0x407493536befb19c	329.2078666079558
65	0x406ad73251b9a1ca	214.72489248520134
66	0x4069cc3b33ad6791	206.38222679012372
67	0xc002f891cd477103	-2.371371845
68	0xc0609f82f4c33f2d	-132.98473585256707
69	0xc02a0bb40fc8bde0	-13.02285813641987
70	0xc08a5d16cfbb7a0f	-843.6361384054779
71	0x4067b35b06247d73	189.60486132742844
72	0x0000000000000000	0.0
73	0x0000000000000000	0.0
74	0x0000000000000000	0.0
75	0x0000000000000000	0.0
76	0xc06ea2c8b9ac9fe6	-245.08700259891265
77	0xc06a1b3dae8ae33a	-208.85127951742635
78	0xc05ed7f9ba528a72	-123.37461717663408
79	0xc06f33e40979008a	-249.6215865481684
80	0x4069b210f6448a73	205.56457055460814
81	0x4067c76377c24601	190.23089206642183
82	0x406b0d80a1950380	216.42195204834206
83	0xc02325d7e6c6fadf	-9.573912822522685
84	0x406f9abbbe069b6f	252.83541775980436
85	0x4069573504601e7f	202.72522181294696
86	0x4065ee9116a4820a	175.45521099214994
87	0xc0188c6f7cf4a95b	-6.137144043381649
88	0x4033a34b0f423880	19.637864068667568
89	0xc056a2e1310bb1fb	-90.54499460355866
90	0xc081cd419e046520	-569.6570396750794
91	0x406b2a0beacd5f3e	217.31395473586775
92	0x0000000000000000	0.0
93	0x0000000000000000	0.0
94	0x0000000000000000	0.0
95	0x0000000000000000	0.0
96	0xc0708fdf9d7f431a	-264.992093560331
97	0xc072ae0984862d2e	-298.8773236504811
98	0xc067445e79de940f	-186.13653272125563
99	0xc070f8a7e5a78f26	-271.5409905
