AI_lab/lab_7_reinforcement_learning/saved_models/FrozenLake/QAgent/run-2024-06-04_13-24-08/model_best.npy (npy, 928 bytes, 1 tensors)

array f8 [25, 4]
00000000: 0000 0000 0000 0000 0000 0000 0000 0000
00000010: 0000 0000 0000 0000 0000 0000 0000 0000
00000020: 4e92 a5ec caa6 8740 ea62 f31c 915f 7d40
00000030: 64cf 4490 5a4d 7f40 b8a2 fdf6 1739 8e40
00000040: b606 12fe 087a 7c40 37f0 a8e8 1cad 6e40
00000050: 8c7c 89b7 49af 6640 0000 0000 0000 0000
00000060: a543 abab 7336 5740 3848 6c5f 4ef5 5f40
00000070: e9d6 bfbe f5b4 5640 0000 0000 0000 0000
00000080: 0333 39aa e17d 3140 ae85 8db2 8868 3640
00000090: c06d 80ec 9ffb 3040 0000 0000 0000 0000
000000a0: 0000 0000 0000 0000 0000 0000 0000 0000
000000b0: 0000 0000 0000 0000 0000 0000 0000 0000
000000c0: 2efc fcdd 36c3 8740 b26a d446 1385 6b40
000000d0: d8ed 5933 feb8 7040 0000 0000 0000 0000
000000e0: 0ef7 b13c b14f 7440 6f90 815f c56a 6840
000000f0: 9023 69b6 3c16 6540 0000 0000 0000 e0bf
00000100: 13ca 97b3 35a9 5a40 877c a2fd 5331 5240
00000110: 33d2 6bac f43a 4e40 0000 0000 0000 0000
00000120: cc0f 8e6d 6d37 3940 d6e3 d5db 2c23 3040
00000130: 7870 3bed 44c7 2f40 0000 0000 0000 0000
00000140: a1dd a042 5a97 89c0 33c1 fcb5 20df 6540
00000150: e01d 89ec 7c12 0c40 4ea7 560e 26ad 59c0
00000160: c3cd fb44 884b 8040 f07d c12b 56d2 6f40
00000170: 1048 6ce0 58ab 6b40 6666 6666 6666 eebf
00000180: 2961 b316 6cd8 6940 ff30 d9d9 7cd3 5540
00000190: e34d b0d0 6918 5840 86a3 1994 fa56 f0bf
000001a0: c428 93a7 4e9c 4a40 f9ba a0c2 06fc 8ac0
000001b0: 27c2 3e08 762b 4ec0 ccf9 201f 351a 5ec0
000001c0: bbcf a3b9 d1b3 3140 3063 61a7 c250 2ec0
000001d0: 7cb1 df74 bc0f 2d40 0000 0000 0000 0000
000001e0: 7090 82b1 babc 6340 b8c1 5d73 bcf2 6740
000001f0: d032 eb1e 07ce 6f40 1045 fced 3766 11c0
00000200: 1ece e02a 9cef 7540 977a 20b1 a2f1 6840
00000210: c3c6 2f4f c1cd 6140 0371 47cd 91f8 02c0
00000220: 648e 8a8a 8a96 5b40 45c7 aabe dc7b 63c0
00000230: c9a8 f3fc 744f 89c0 4842 d319 e2af 5cc0
00000240: 0000 0000 0000 0000 0000 0000 0000 0000
00000250: 0000 0000 0000 0000 0000 0000 0000 0000
00000260: 1560 8425 a2ad 1540 3ae3 8aae 3d1b 6ac0
00000270: 518f c7f0 2238 67c0 8a00 7909 e433 6fc0
00000280: 409f 64ea 365a 6940 cb7d 7d2c 1b5b 6640
00000290: deb0 f1c0 92ef 6640 dffa c6e6 d725 23c0
000002a0: adf5 002b 0210 6b40 7563 c3df 385d 6740
000002b0: 5f2b 2fd0 3aec 6140 5ba9 f47c 6f8c 18c0
000002c0: b6b1 8af8 14d3 1ac0 3a31 3fcf 9d5f 61c0
000002d0: de07 5d63 ca25 85c0 5874 6f99 3b4a 5840
000002e0: 0000 0000 0000 0000 0000 0000 0000 0000
000002f0: 0000 0000 0000 0000 0000 0000 0000 0000
00000300: 1a43 7f9d df8f 70c0 2e2d 8684 09ae 72c0
00000310: 7e90 6e0d 4ed8 67c0 268f a7e5 a7f8 70c0
0.0 0.0 0.0 0.0 756.8490841803812 469.9729280001908 500.83461024168923 967.1367015662463
455.62719542542925 245.40977890964288 181.47774865010103 0.0 92.85080997204803 127.83290849279808 90.82749909147573 0.0
17.491724623646416 22.40833583788997 16.982908994059244 0.0 0.0 0.0 0.0 0.0
760.4017905964336 220.15860311019566 267.56206069115206 0.0 324.9807707740555 195.33659339242465 168.69491119894928 -0.5
106.64390268157176 72.77075138919655 60.46059184326841 0.0 25.21651348799041 16.1374032399361 15.88919774389818 0.0
-818.9190723960529 174.97274302831792 3.509027336058111 -102.7054477545 521.4415378257912 254.57301891127963 221.35459920071344 -0.95
206.7631944182879 87.30449529848191 96.38145844666683 -1.0212350640451588 53.22115034757147 -863.5033009106693 -60.33953955711723 -120.40949228496828
17.70241890191367 -15.157735090864293 14.5307346842826 0.0 157.8977897214968 191.58550422965868 254.43836923539357 -4.349822729608846
350.9756268292857 199.5511098512986 142.4298473294385 -2.371371845 110.35220588236695 -155.8706963859096 -809.9321230922588 -114.74817510252717
0.0 0.0 0.0 0.0 5.419563852505253 -208.85127951742635 -185.75426520325212 -249.6215865481684
202.81920356419323 178.84706711301837 183.48666426854373 -9.573912822522685 216.50026464641033 186.91319263612573 143.3821793481138 -6.137144043381649
-6.706134685006353 -138.98801386205906 -676.7238223331476 97.15988765606141 0.0 0.0 0.0 0.0
-264.992093560331 -298.8773236504811 -190.75952788920034 -271.5409905
