AI_lab/lab_7_reinforcement_learning/saved_models/FrozenLake/QAgent/run-2024-06-04_13-25-36/model_best.npy (npy, 928 bytes, 1 tensors)

array f8 [25, 4]
00000000: 0000 0000 0000 0000 0000 0000 0000 0000
00000010: 0000 0000 0000 0000 0000 0000 0000 0000
00000020: c974 9281 4dfc 8640 ee57 fb23 c7c3 7940
00000030: 6e12 181d e000 7f40 0000 0000 0000 0000
00000040: a46d 86a0 917a 7340 f457 0b4e 169c 6c40
00000050: f65d f41d 80e0 6c40 1694 38cc b90d 8540
00000060: ff31 adf1 6aa9 8040 1a2c ec3d 6b16 8040
00000070: 77a8 0a6f ae9a 8140 0000 0000 0000 0000
00000080: d8e9 5cc4 ce0e 8040 842e 556d 3816 8040
00000090: d7ec 23c5 65d7 7f40 ceaa 9432 2406 8140
000000a0: 0000 0000 0000 0000 0000 0000 0000 0000
000000b0: 0000 0000 0000 0000 0000 0000 0000 0000
000000c0: 1a99 30dd d923 5840 8daa ec75 75ba 3a40
000000d0: 13b3 0487 b977 7c40 ca19 0bbc 13d3 43c0
000000e0: 2057 2ba1 a4f6 7640 fbb2 e254 abbb 6e40
000000f0: d881 0895 58a3 8040 8600 94c7 8fb3 f7bf
00000100: d467 076c 06be 8040 f5f0 a1b3 c768 7140
00000110: 2a2c 5c55 9846 7840 75e3 4c01 7a24 c3bf
00000120: 0fca e75a 8ce5 8040 5acd caa3 a135 6f40
00000130: 3d00 ae03 8a66 7240 0000 0000 0000 0000
00000140: 9867 558f f8ba 76c0 3b89 cc94 dd42 52c0
00000150: 0c20 b320 26e4 7040 2e9e f214 2005 57c0
00000160: 4ed1 16af d4ad 6540 0342 bd04 4351 6240
00000170: 0584 7064 2f20 7c40 2185 ecad c7af 29c0
00000180: e4c1 eb54 c1f2 7d40 ac74 4da8 daa1 5c40
00000190: 20e5 1746 cf3f 6440 eab7 5afe 7282 0fc0
000001a0: 4b2b f8c3 c685 7b40 e24c 9a32 37e0 71c0
000001b0: b8a5 c08b 409e 3dc0 80fa 4bed d2aa 3ac0
000001c0: 7744 4708 a600 7d40 8bfa 704b 16a6 2840
000001d0: bc26 e1e1 0976 3440 ff06 2093 da91 d7bf
000001e0: c59d 62b1 90e3 4e40 5a99 887a 1a82 5a40
000001f0: 52a0 562c 8fbd 7740 4c48 d989 b49e 3ec0
00000200: dfa6 2f0f 758e 7940 0f0a 1256 7ce6 5840
00000210: 8054 440c 4c1b 5740 7efc b5da cd6d 36c0
00000220: 85e0 0141 9fb3 7140 c189 5089 2960 59c0
00000230: 31ee 8fb8 5a6a 7ac0 7e49 1b54 0cf4 55c0
00000240: 0000 0000 0000 0000 0000 0000 0000 0000
00000250: 0000 0000 0000 0000 0000 0000 0000 0000
00000260: 8179 4112 b737 15c0 8a07 722c 501e 3f40
00000270: 460a 1b81 7fbf 0040 9a99 9999 9919 24c0
00000280: a8c6 f1fd 369c 7640 6e3b 94fb a00f 5b40
00000290: 23fa abc3 db00 5640 8ba1 6967 9d06 41c0
000002a0: 62a9 bff9 0db4 7540 60b4 d0d3 533f d13f
000002b0: e8e4 45cb 6cf1 38c0 688e 83cb c257 40c0
000002c0: 57d2 93e9 32db 57c0 486a a9cc 117f 59c0
000002d0: be46 b1fe 2b01 7ac0 f0c6 7fd7 c8f7 4640
000002e0: 0000 0000 0000 0000 0000 0000 0000 0000
000002f0: 0000 0000 0000 0000 0000 0000 0000 0000
00000300: 128a 8d84 bc17 4bc0 d749 dd09 0408 4ec0
00000310: afbb b82e 7458 4dc0 c0f8 296a 1d6c 4dc0
0.0 0.0 0.0 0.0 735.5378447954073 412.2361182993035 496.05471524623033 0.0
311.6605534793 228.87772276130238 231.01563928344666 673.7157215519135 533.177218773926 514.8023642016371 563.335172732607 0.0
513.8509604700912 514.7775522856541 509.46234621079697 544.7676746000886 0.0 0.0 0.0 0.0
96.5601723646727 26.728354807166898 455.48279477916475 -39.649039750499995 367.41519276552026 245.86466450001885 532.4182530083299 -1.4813382907887287
535.7531357363282 278.54875529535576 388.4121907806863 -0.14955067695134586 540.6935327633418 249.67598142251774 294.40869491547693 0.0
-363.6856835685844 -73.04477424597 270.25930852862143 -92.0800831193271 173.43221239525377 146.53943097080636 450.0115703959603 -12.843320307848048
479.1722001275323 114.52897079052008 161.99405197779652 -3.9386958953318656 440.3610267347437 -286.0134759929043 -29.618172392399828 -26.667280989694063
464.04053523863644 12.324388845006316 20.46108829256876 -0.36827720992742735 61.77785317721604 106.03286612834691 379.84745439375286 -30.619942298457588
408.9035789357567 99.6013388801732 92.4265165965353 -22.42892233794236 283.22638035519805 -101.50253517975854 -422.6471486685069 -87.81325247444872
0.0 0.0 0.0 0.0 -5.304409299131636 31.11841085227892 2.0935049139382356 -10.05
361.76342577403784 108.2442006061153 88.01341335100783 -34.05167858751073 347.2534120070251 0.26949020085414155 -24.943066315235143 -32.68563217090269
-95.42498244701106 -101.98546139282655 -416.0732409405572 45.9358167051231 0.0 0.0 0.0 0.0
-54.18544060622311 -60.062623246241564 -58.69104560871289 -58.844647665494904
