AI_lab/lab_7_reinforcement_learning/saved_models/FrozenLake/QAgent/run-2024-06-04_13-25-36/model.npy (npy, 928 bytes, 1 tensors)

array f8 [25, 4]
00000000: 0000 0000 0000 0000 0000 0000 0000 0000
00000010: 0000 0000 0000 0000 0000 0000 0000 0000
00000020: aa0d 859a 986a 8740 389f 9b3f f565 7b40
00000030: 7750 b080 ebb0 8040 0000 0000 0000 0000
00000040: 0a3e 0c25 c5a9 7740 45ae 3b6d f99e 6f40
00000050: f103 2ccd af1e 7040 0fe0 a05f d087 8540
00000060: ddb3 81f2 d515 8140 a103 e497 0090 8040
00000070: 2942 10a9 8da4 8140 0000 0000 0000 0000
00000080: 551c f4f0 af7b 8040 db3b a09b 2a7e 8040
00000090: 527f 77ff c96c 8040 7a92 021d 341a 8140
000000a0: 0000 0000 0000 0000 0000 0000 0000 0000
000000b0: 0000 0000 0000 0000 0000 0000 0000 0000
000000c0: 2034 3aac 2da7 5940 8619 68fa 1ea8 4340
000000d0: e0f5 b604 15b3 7d40 ca19 0bbc 13d3 43c0
000000e0: adee f1a1 badf 7840 36c0 ab12 661d 7240
000000f0: 26fe 9cb5 e8a3 8040 8600 94c7 8fb3 f7bf
00000100: ba1c 07c9 58c6 8040 6727 956f 6029 7440
00000110: bb3f 9c1d 9931 7a40 75e3 4c01 7a24 c3bf
00000120: 2757 f8e7 cff8 8040 41ad b77c 8de1 7140
00000130: 0b40 36c8 8a3a 7540 0000 0000 0000 0000
00000140: 014a 9fa9 1b0e 77c0 92cd 061e 780b 50c0
00000150: d4e8 1265 a622 7240 2e9e f214 2005 57c0
00000160: 06c6 341a f8bd 6840 f4be c600 4135 6740
00000170: 5edf e88a 3fc7 7c40 2185 ecad c7af 29c0
00000180: cd53 635d dd39 7e40 693a f47f 0aaa 6140
00000190: 2508 47a8 3cdd 6740 eab7 5afe 7282 0fc0
000001a0: 2bc4 cec1 6583 7b40 121e 0ab8 82a5 73c0
000001b0: 7387 0241 8ad4 12c0 80fa 4bed d2aa 3ac0
000001c0: 0b35 48a4 fcd2 7d40 dad6 ebd1 fe48 2840
000001d0: bc26 e1e1 0976 3440 ff06 2093 da91 d7bf
000001e0: f97e 01da 7191 5440 dec6 6c1b bd74 5f40
000001f0: f5c8 30e8 40aa 7840 4c48 d989 b49e 3ec0
00000200: 6c57 c4cc 1588 7a40 ccc2 1bfe d36a 5c40
00000210: 7815 b994 510e 5e40 7efc b5da cd6d 36c0
00000220: 37c1 b3d1 df66 6e40 7cda a47e 96de 58c0
00000230: ea4c fce6 6235 7ac0 7e49 1b54 0cf4 55c0
00000240: 0000 0000 0000 0000 0000 0000 0000 0000
00000250: 0000 0000 0000 0000 0000 0000 0000 0000
00000260: 8179 4112 b737 15c0 a097 1524 e00e d63f
00000270: b4be 2897 4907 1e40 9a99 9999 9919 24c0
00000280: f641 dd89 bf81 7740 bee5 5edd faa1 6140
00000290: cb2e f936 9e8e 6040 8ba1 6967 9d06 41c0
000002a0: 6200 a2bb 4ea4 7640 c2a9 cf98 71c7 3140
000002b0: e8e4 45cb 6cf1 38c0 688e 83cb c257 40c0
000002c0: b5f5 ef10 6111 59c0 366e 4c86 22a5 58c0
000002d0: ad76 586f 665f 7ac0 2b20 1446 445e 5b40
000002e0: 0000 0000 0000 0000 0000 0000 0000 0000
000002f0: 0000 0000 0000 0000 0000 0000 0000 0000
00000300: 417b 57ab 6dde 4fc0 d749 dd09 0408 4ec0
00000310: 60c4 a693 b001 4dc0 c0f8 296a 1d6c 4dc0
0.0 0.0 0.0 0.0 749.3245134730143 438.37237511434387 534.114991548019 0.0
378.610631034681 252.96794759422679 257.91792027658 688.976744896734 546.7294664509787 530.0002897084815 564.5691701193037 0.0
527.4609088011881 527.770804645373 525.598631795476 547.2754459572745 0.0 0.0 0.0 0.0
102.6121626442332 39.31344537814134 475.19263144940305 -39.649039750499995 397.9830645990831 289.8374201497094 532.4886276497898 -1.4813382907887287
536.7933521800653 322.58604391349076 419.09988175425286 -0.14955067695134586 543.1015166665646 286.09704276798954 339.6588823432109 0.0
-368.88175356123253 -64.17920637764317 290.1656237352993 -92.0800831193271 197.93653593356447 185.6641849405056 460.45301333394843 -12.843320307848048
483.6165441398596 141.3137817163545 190.91365445969964 -3.9386958953318656 440.2123430325325 -314.3444137950147 -4.707558646945347 -26.667280989694063
477.18668010908067 12.14256912235162 20.46108829256876 -0.36827720992742735 82.27257394929974 125.8240421831392 394.64084643417965 -30.619942298457588
424.5053222341146 113.66918900214222 120.22372930597874 -22.42892233794236 243.21482167347287 -99.47793546771021 -419.3366460662352 -87.81325247444872
0.0 0.0 0.0 0.0 -5.304409299131636 0.3446579315553837 7.507116662847398 -10.05
376.10926233700536 141.0618731358972 132.45681332272065 -34.05167858751073 362.26922190934977 17.779077101420405 -24.943066315235143 -32.68563217090269
-100.27154944833349 -98.58023221458356 -421.9625085311516 109.47291709866901 0.0 0.0 0.0 0.0
-63.73772184154087 -60.062623246241564 -58.01320119517254 -58.844647665494904
