AI_lab/lab_7_reinforcement_learning/saved_models/FrozenLake/QAgent/run-2024-06-04_13-24-20/model.npy (npy, 928 bytes, 1 tensors)

array f8 [25, 4]
0	0x0000000000000000	0.0
1	0x0000000000000000	0.0
2	0x0000000000000000	0.0
3	0x0000000000000000	0.0
4	0x406e0102bc084194	240.03158380138905
5	0x405632bb694f5d23	88.79268868208287
6	0x40568f3ee8949e92	90.23821463121047
7	0x0000000000000000	0.0
8	0x403bca06b0276948	27.789164552328003
9	0x403b0c410341583b	27.047867015317234
10	0x403efc1c07f3c115	30.984802720079717
11	0x0000000000000000	0.0
12	0x403bbecd577083a4	27.745320763558666
13	0x403763024135e134	23.38675315442488
14	0x4040d921dd092d38	33.69634592960432
15	0x0000000000000000	0.0
16	0x4033a67d8c851a02	19.65035322427321
17	0x4034527a6d7f08fa	20.32218059874956
18	0x40371c250e6fdebb	23.109940435707113
19	0x403d710708defaa7	29.441513590276966
20	0x0000000000000000	0.0
21	0x0000000000000000	0.0
22	0x0000000000000000	0.0
23	0x0000000000000000	0.0
24	0xc05ce20bd9cc7057	-115.53197331394891
25	0x402cfeb70c569de9	14.497490296910614
26	0xc05caac875775f01	-114.66848503739676
27	0xc07105ae147ae148	-272.355
28	0x4039c324f47a5b2d	25.762282638427838
29	0x401ac4009b8518aa	6.691408567427212
30	0x4023712b1cc4d8be	9.721032046345837
31	0x0000000000000000	0.0
32	0x403e20fca04fc671	30.128854770161016
33	0xc0474522377fff61	-46.54010671377069
34	0x4029d914be790843	12.92398638942189
35	0x0000000000000000	0.0
36	0x4037869ac44ea94d	23.52579905434077
37	0x402083e83138c54c	8.257630861454025
38	0x402e76fb217681e6	15.232384725300061
39	0xbfd3e8baa3a1d29a	-0.31107965449999997
40	0xc085b35cea0f79ab	-694.4203683098798
41	0xc067d43354b8db50	-190.6312659845812
42	0xc04c43206ee2d41b	-56.52442728114712
43	0xc06df3a80419295f	-239.61425976671578
44	0xc041d3b234fbb782	-35.65387594500409
45	0xc0377b34978e94dc	-23.48127124052995
46	0xc026d1cf41d12b59	-11.409784371169438
47	0xc043c23ab6877e6c	-39.51741677871618
48	0xbff4b60d8198a7df	-1.2944464742999953
49	0xc04384308d276863	-39.032731670610495
50	0xc040d56fd8846b7d	-33.66747576204123
51	0xc040797276e4aece	-32.94880567709116
52	0xc0525a889c971c4e	-73.41458811528102
53	0xc087bf0825133938	-759.8789769651257
54	0xc06b504df9eaf5a6	-218.50951858416119
55	0xc06c93e080364a6c	-228.62115488628058
56	0x400bae11b698315a	3.4599947228618193
57	0xc05b1a84cc0629a8	-108.41435528375462
58	0xc03378f1739a6c9d	-19.472434258652914
59	0xc04131337d64d201	-34.38438384459369
60	0xc04562b5c933e244	-42.771172666868125
61	0xc044767b6d9b53a6	-40.92564172825159
62	0xc03c7d813ecf4128	-28.49025337753224
63	0xc0511130785210fb	-68.26858337415972
64	0xc034195307242011	-20.09892315513577
65	0xc042e15190fb0018	-37.760301706846974
66	0xc048843e8a9a84a1	-49.0331586126788
67	0xc05098b76ef65ba6	-66.38619588907622
68	0xc066a2b8783c069a	-181.08501826976573
69	0xc065ea1c4e583176	-175.315955326321
70	0xc088645aa48ce22c	-780.5442591673395
71	0xc03e44c128376097	-30.268572343368387
72	0x0000000000000000	0.0
73	0x0000000000000000	0.0
74	0x0000000000000000	0.0
75	0x0000000000000000	0.0
76	0xc070e83d5548b8fa	-270.51497391135456
77	0xc0700e81a62fbe1d	-256.9066526284167
78	0xc0638c3e50701c41	-156.3826067151695
79	0xc07105ae147ae148	-272.355
80	0xc0423bb5e0f95b6f	-36.46648800063746
81	0xc03ee03986eefb97	-30.875877793641475
82	0xc03b53f777e3955e	-27.32799481683957
83	0xc04b60446779a3ad	-54.752087530512064
84	0xc0396ec1421ddc31	-25.43263638714797
85	0xc042f8a883eef9f7	-37.942642680824
86	0xc04c3451dbcda618	-56.40874812642522
87	0xc0422da9132c15b8	-36.35672225620823
88	0xc067fca236e907e1	-191.8948015738852
89	0xc06d41c7530d6f78	-234.05558159469706
90	0xc0895d4f1b8a8a5e	-811.6636267493702
91	0xc04f005ef2768f6f	-62.00289755620076
92	0x0000000000000000	0.0
93	0x0000000000000000	0.0
94	0x0000000000000000	0.0
95	0x0000000000000000	0.0
96	0xc070aea24c80acc5	-266.91462373984933
97	0xc071a8788b34514c	-282.5294296306281
98	0xc06fa570effe7e28	-253.1700363131106
99	0xc0751d9953ff48f3	-337.84993362160384
