AI_lab/lab_7_reinforcement_learning/saved_models/FrozenLake/QAgent/run-2024-06-04_13-24-20/model_best.npy (npy, 928 bytes, 1 tensors)

array f8 [25, 4]
0	0x0000000000000000	0.0
1	0x0000000000000000	0.0
2	0x0000000000000000	0.0
3	0x0000000000000000	0.0
4	0x407d9fa1ca7bd74b	473.97699974418055
5	0x40721ecfb50140b9	289.9257097290934
6	0x405c36615b5c7d1f	112.84969219238381
7	0x0000000000000000	0.0
8	0x40528aae32252480	74.16688207270818
9	0x405e2ff4d65c40a6	120.7493186856178
10	0x404a26a1dd200963	52.30181469024935
11	0x0000000000000000	0.0
12	0x4047a76b3bd3baf0	47.30796001280203
13	0x4048059918a83071	48.043734628795285
14	0x40511fa5ed6c1e01	68.49450240667649
15	0x0000000000000000	0.0
16	0x404713e5ece915d8	46.15545426732177
17	0x4048f04d9b965993	49.87736840096763
18	0x40477de37aaf4f28	46.98350461540241
19	0x404b3cbc7fc19661	54.47450253441344
20	0x0000000000000000	0.0
21	0x0000000000000000	0.0
22	0x0000000000000000	0.0
23	0x0000000000000000	0.0
24	0x40732715ecdd25c4	306.4428528441024
25	0xc06602416540cb34	-176.07048285155327
26	0xc052f56bb3e7d7f8	-75.83469865456561
27	0xc07105ae147ae148	-272.355
28	0x40579bbc4820d753	94.43336680609836
29	0x404755c49101e88f	46.67006123154817
30	0x4045b8b2cc6f4186	43.44295649940891
31	0x0000000000000000	0.0
32	0x4041a2224c47a767	35.26667169092871
33	0xbff7b53cebfb5802	-1.481747552684738
34	0x404b9eb6013b17f2	55.23992934594561
35	0x0000000000000000	0.0
36	0x404a689dfc409267	52.81732133057522
37	0x404740b6ff7e1aee	46.50558465630989
38	0x4046007fde0b289a	44.00390220208028
39	0xbfd3e8baa3a1d29a	-0.31107965449999997
40	0xc0829ee5a1ee0f78	-595.8621252630683
41	0xc05d34b07922a9d2	-116.82327106843084
42	0x4033f19f9e290580	19.94384182454587
43	0xc06df3a80419295f	-239.61425976671578
44	0x4061fbf8e5708f52	143.87413284286828
45	0x40313864ec4e0cc5	17.22028996377482
46	0x404a049ecab325bb	52.03609594104224
47	0xc043c23ab6877e6c	-39.51741677871618
48	0x40429c8559ee948e	37.222819558615
49	0xc01ad356c5f751fb	-6.706385701389531
50	0xc03a49a9a65df8d0	-26.28774490160214
51	0xc040797276e4aece	-32.94880567709116
52	0x4042fa9f4e9ce805	37.95798666631166
53	0xc083bb2cc2a2324c	-631.3968556090927
54	0xc0653c7c8492776b	-169.89019993406995
55	0xc06c93e080364a6c	-228.62115488628058
56	0x40460d4924a0a5bc	44.103794649544824
57	0xc05426c7c0bb31c5	-80.60594194679932
58	0xc0369d57e8324aa1	-22.614622604635432
59	0xc04131337d64d201	-34.38438384459369
60	0xc02085708a990966	-8.260624247723808
61	0xbff0cda0d9c00d3e	-1.0502022271983402
62	0x403662fed8436bf7	22.386701122722993
63	0xc0511130785210fb	-68.26858337415972
64	0x404d7c70fc410c13	58.97219803978091
65	0xc02b0f0853f9b4e6	-13.529360412818686
66	0xc0294e140325f66c	-12.652496431717019
67	0xc05098b76ef65ba6	-66.38619588907622
68	0xc06b9ab9c0fb0df6	-220.8351750281724
69	0xc06fc736fa0f1894	-254.22546103428306
70	0xc087e19ba8d12406	-764.2010055865401
71	0xc0526a0b838cf92f	-73.6569527508443
72	0x0000000000000000	0.0
73	0x0000000000000000	0.0
74	0x0000000000000000	0.0
75	0x0000000000000000	0.0
76	0xc070e83d5548b8fa	-270.51497391135456
77	0xc065b9201bf85124	-173.78516958712964
78	0xc06b836459bb995b	-220.10599981918753
79	0xc07105ae147ae148	-272.355
80	0x4015875b1727c178	5.382183419991968
81	0xbfe691a4e3d38642	-0.7052788209659371
82	0xc011d5ffb5ad5bbd	-4.458983267503695
83	0xc04b60446779a3ad	-54.752087530512064
84	0xc03314599299419d	-19.079491770187463
85	0xc041cac6ed777f9b	-35.58419578871618
86	0xc05149d7d6253881	-69.15379861483417
87	0xc0279fd80648569d	-11.812195011453975
88	0xc070b7bd4bb812e9	-267.4837147894273
89	0xc073438248c50023	-308.21930767968496
90	0xc08a316a5330003a	-838.176916480071
91	0xc06a6555ec999499	-211.16673879619773
92	0x0000000000000000	0.0
93	0x0000000000000000	0.0
94	0x0000000000000000	0.0
95	0x0000000000000000	0.0
96	0xc071491a94a4db60	-276.56898941418876
97	0xc0727c9418c55bf4	-295.7861564359039
98	0xc065f98f7b58514d	-175.79876487016227
99	0xc0751d9953ff48f3	-337.84993362160384
