AI_lab/lab_7_reinforcement_learning/saved_models/FrozenLake/QAgent/run-2024-06-04_13-25-01/model_best.npy (npy, 928 bytes, 1 tensors)

array f8 [25, 4]
000000 00 00 00 00 00 00 00 00 00 00 00 00 00 00 00 00
       0.0 0.0
000010 00 00 00 00 00 00 00 00 00 00 00 00 00 00 00 00
       0.0 0.0
000020 fb ed 52 85 59 ab 7a 40 5c 27 0c 44 15 a4 77 40
       426.70935566324596 378.25519184825475
000030 0c 45 60 da 4e 5c 7a 40 5a 0b a1 09 99 ce 8d 40
       421.7692512283836 953.8247253972615
000040 39 fa 0c 40 f5 bd 78 40 41 83 56 45 ad cb 76 40
       395.87237553662595 364.7298024539378
000050 20 2a 1a db 18 d1 63 40 08 6e 8f 4a f1 eb 8b 40
       158.53428416357292 893.4928179936842
000060 e9 87 d8 e5 22 72 50 40 c0 3f 81 e6 09 75 48 40
       65.78337999482723 48.91436463652599
000070 30 e6 79 54 f4 91 72 40 00 00 00 00 00 00 00 00
       297.1221508752524 0.0
000080 f1 14 42 f9 ce 1b 58 40 84 99 2e c4 e7 10 6e 40
       96.43450766995717 240.52829178906916
000090 fd f6 dc b9 d8 8c 5b 40 d4 75 97 95 2c ef b0 bf
       110.20072790697664 -0.06614950801982583
0000a0 00 00 00 00 00 00 00 00 00 00 00 00 00 00 00 00
       0.0 0.0
0000b0 00 00 00 00 00 00 00 00 00 00 00 00 00 00 00 00
       0.0 0.0
0000c0 5a 06 48 1a e5 4a 87 40 7a f6 e7 ed 9d 59 50 40
       745.3618665339411 65.40026424076669
0000d0 88 a4 18 59 19 31 53 40 da c9 e0 28 79 d9 3d c0
       76.7671721211101 -29.849505
0000e0 44 da 90 07 3c 44 88 40 2b 25 ef 28 2d 77 70 40
       776.5293113056764 263.4485253659829
0000f0 6a d0 87 ec 79 7a 61 40 fa 80 4d b2 59 73 fb bf
       139.82738329435534 -1.7156617131186622
000100 d8 c2 e4 4f 73 76 49 40 76 96 29 76 0c 1c 53 40
       50.92539404554344 76.43826059399893
000110 5d c5 17 30 f1 44 71 40 f8 c4 fe 44 37 dd b9 bf
       276.3088837555459 -0.10103173670247034
000120 be ce 44 d9 ec 12 6f 40 fd bd 6a a8 d1 84 5a 40
       248.59141219557745 106.0752965013889
000130 22 cf 3a 64 df b3 59 40 00 00 00 00 00 00 00 00
       102.81050973647191 0.0
000140 ad fd a1 4f 18 3e 7b c0 a9 76 b4 46 14 c0 80 40
       -435.8809353187342 536.0099004839623
000150 6e 40 cb 18 25 a5 2a c0 19 47 25 27 3e 53 51 c0
       -13.322548651515003 -69.30066851272967
000160 bf df 9a e8 ae 13 75 40 ce e8 52 86 3c d8 72 40
       337.23020229814205 301.51477653871996
000170 e8 4c 83 49 1b 00 86 40 43 95 75 d8 09 d7 24 c0
       704.0133238084645 -10.419996990540886
000180 5b 6b 63 d9 f6 8a 86 40 83 52 0f b2 8a a6 6b 40
       721.3705318228853 221.2044306086792
000190 e2 94 90 62 0f b3 65 40 22 d2 60 4b ba 9a 16 c0
       173.59562805403317 -5.65110128191421
0001a0 b6 f7 26 7d 1e 31 26 c0 8f 3b e1 16 1a df 74 c0
       -11.095935736662664 -333.94386947614197
0001b0 6c 09 a3 13 b7 61 44 c0 7a 04 44 2d 7f ff 7e 40
       -40.763399557693305 495.9685490281041
0001c0 93 28 72 53 e2 84 6b 40 7f f6 02 e0 60 c2 22 40
       220.1526276807459 9.379645347940139
0001d0 a2 d5 01 0c 85 e9 21 40 40 a2 df b2 d2 51 67 bf
       8.95609319231409 -0.0028466334542723015
0001e0 58 38 9b 70 0e ab 67 40 9c 93 e0 28 e7 de 6c 40
       189.34551267925667 230.96571773398034
0001f0 c2 b9 f1 22 11 af 83 40 99 f3 11 1b 1b 23 39 c0
       629.8833674320997 -25.137132350809768
000200 f9 df d6 ab e5 c8 84 40 40 56 ec f2 bd 6e 71 40
       665.1121441638089 278.9213742477332
000210 20 8b dd c5 fa 16 70 40 94 10 fa 2a 10 26 32 c0
       257.436223855404 -18.14868420224282
000220 ce 9a 29 79 3a 5a 46 c0 1c d8 88 b6 e2 51 45 c0
       -44.70490946322899 -42.639731232469984
000230 1c 92 3a 1a e2 b3 7a c0 3a 26 33 5d 1e e1 80 40
       -427.24270079497524 540.139826202015
000240 00 00 00 00 00 00 00 00 00 00 00 00 00 00 00 00
       0.0 0.0
000250 00 00 00 00 00 00 00 00 00 00 00 00 00 00 00 00
       0.0 0.0
000260 24 e8 29 47 e0 fa 22 c0 a6 d6 f8 00 44 0e 3d c0
       -9.489992355218483 -29.05572515559347
000270 4c 2f cc 3f 35 be 3b c0 1d 5a 64 3b df ff 33 c0
       -27.7430000184534 -19.9995
000280 18 21 ed 25 49 e8 82 40 04 1a b6 81 60 d8 6a 40
       605.0357168699002 214.7617806011841
000290 b7 94 f4 3d fb 39 6a 40 3d 63 b4 a1 10 6e 3b c0
       209.8119191910716 -27.42994127897258
0002a0 44 30 4a 58 e8 34 82 40 45 e0 5b ab a7 a0 52 40
       582.6134496494274 74.51023372623702
0002b0 40 e0 63 22 27 25 41 40 10 81 9b 10 d1 7c 38 c0
       34.290256785171096 -24.48756507679451
0002c0 ba 66 71 59 6f 63 54 c0 23 4e 2d 96 4d 51 5b c0
       -81.55367122721046 -109.27036051201189
0002d0 c7 98 dc eb 45 74 7b c0 cd f3 5b da 87 30 73 40
       -439.2670706383764 307.03316722792516
0002e0 00 00 00 00 00 00 00 00 00 00 00 00 00 00 00 00
       0.0 0.0
0002f0 00 00 00 00 00 00 00 00 00 00 00 00 00 00 00 00
       0.0 0.0
000300 2d dc 2a 35 72 66 42 c0 05 5f 22 eb 8a b0 3c c0
       -36.80036034195687 -28.68961972798481
000310 3f 12 23 08 68 8d 3e c0 da c9 e0 28 79 d9 3d c0
       -30.552368649065325 -29.849505
