AI_lab/lab_7_reinforcement_learning/saved_models/FrozenLake/QAgent/run-2024-06-04_13-25-01/model.npy (npy, 928 bytes, 1 tensors)

array f8 [25, 4]
00000000: 0000 0000 0000 0000 0000 0000 0000 0000
00000010: 0000 0000 0000 0000 0000 0000 0000 0000
00000020: 3042 5b60 4e5a 7d40 b321 14eb 82b6 7a40
00000030: 712c b022 5cf4 7e40 23ae 1d03 3a37 8d40
00000040: 6a4b cf34 d6ae 7c40 d120 1d00 b154 7b40
00000050: 0cc7 05d7 cd2a 6940 fff4 ea8b 7849 8b40
00000060: 3400 bf2d 040f 5440 87dc 5c25 fd3e 5040
00000070: b3de 60a6 2ce2 7440 0000 0000 0000 0000
00000080: a141 a40a b312 6240 97ab 6b45 02b6 7140
00000090: 0edc 39be 3b1e 6340 d475 9795 2cef b0bf
000000a0: 0000 0000 0000 0000 0000 0000 0000 0000
000000b0: 0000 0000 0000 0000 0000 0000 0000 0000
000000c0: 7eee b747 5ce4 8440 6a0c 50b7 21c8 5340
000000d0: 36f6 0369 96ad 5740 dac9 e028 79d9 3dc0
000000e0: f0d8 2140 9179 8840 0b34 094e bd9b 7440
000000f0: 8cf0 a366 b2af 6840 fa80 4db2 5973 fbbf
00000100: 8678 0a3a ecc6 4f40 6322 bc8c f66f 5540
00000110: 3de3 b4d8 28e0 7340 f8c4 fe44 37dd b9bf
00000120: 887a 668e ed00 7240 5f35 86b4 73ae 6140
00000130: ae67 d04f 8a14 6140 0000 0000 0000 0000
00000140: 8d11 fead a105 7dc0 d80f 5e0b 21ad 8040
00000150: 2f92 3ed8 9274 3f40 1947 2527 3e53 51c0
00000160: 2c99 f9e6 7c32 7940 f12a f6da d1ff 7540
00000170: a283 1e09 c56b 8540 4395 75d8 09d7 24c0
00000180: f94d ecaa fcf3 8540 6fa2 2d10 c3a5 7040
00000190: 969d 66cc 80e9 6c40 22d2 604b ba9a 16c0
000001a0: 3f03 a18f 52c7 0b40 39d3 91b4 2d86 76c0
000001b0: 9472 5d37 05aa 50c0 a476 4943 644a 7d40
000001c0: ebc6 589a 1a17 7040 35fe b15d 0a92 2140
000001d0: 93c1 8a94 1788 2140 40a2 dfb2 d251 67bf
000001e0: 27ca 6a7a 9b2f 7140 fe8f e6f2 1044 7140
000001f0: b675 3bf6 2044 8340 99f3 111b 1b23 39c0
00000200: ca9c ff75 4d2c 8440 52ec 005c fd99 7540
00000210: adea 1ea5 9da5 7240 9410 fa2a 1026 32c0
00000220: 5806 eb5c 4f84 24c0 fb63 7acb 4f83 32c0
00000230: 2b92 cac7 678e 79c0 fde5 54ac e30e 8040
00000240: 0000 0000 0000 0000 0000 0000 0000 0000
00000250: 0000 0000 0000 0000 0000 0000 0000 0000
00000260: f65a 9a68 9438 0240 b3f1 59e9 7e9c 3ac0
00000270: 4c2f cc3f 35be 3bc0 1d5a 643b dfff 33c0
00000280: 53b4 85d5 08bf 8240 9ca5 c521 f459 7140
00000290: 9414 61c7 edac 6f40 3d63 b4a1 106e 3bc0
000002a0: 3839 d449 13c1 8240 42d1 57a6 9164 5a40
000002b0: 864e c7f8 3c4d 4b40 1081 9b10 d17c 38c0
000002c0: de77 3c3d 41eb 52c0 234e 2d96 4d51 5bc0
000002d0: fd72 7133 63f6 7ac0 f338 18b3 57b1 7740
000002e0: 0000 0000 0000 0000 0000 0000 0000 0000
000002f0: 0000 0000 0000 0000 0000 0000 0000 0000
00000300: 2ddc 2a35 7266 42c0 609b 3bf5 6b15 3ec0
00000310: cb1e 0704 ff25 44c0 de6b c913 e3d2 43c0
0.0 0.0 0.0 0.0 469.64413486144895 427.40696246971055 495.27249401872456 934.9033262556808
458.92729645704696 437.29321299913596 201.337626944813 873.1838606220261 80.23463004734441 64.98420080250263 334.1359008583051 0.0
144.5843556602604 283.37555448588085 152.94479285526944 -0.06614950801982583 0.0 0.0 0.0 0.0
668.5450586671502 79.1270578653072 94.71230531107798 -29.849505 783.1959231037454 329.7337169990066 197.4905274583765 -1.7156617131186622
63.55408406745214 85.74942320225232 318.00997229251135 -0.10103173670247034 288.0579971316406 141.45162416660875 136.64188376144506 0.0
-464.35197257276087 533.6411349629007 31.45536567237485 -69.30066851272967 403.155493712419 351.98873420867227 685.4712087997361 -10.419996990540886
702.4983728848739 266.36012285066585 231.29697246591667 -5.65110128191421 3.4723254414570017 -360.38615853274274 -66.65656837583293 468.64947823235184
257.4439948528149 8.785235336282406 8.765804902971274 -0.0028466334542723015 274.9754585429641 276.2541378980967 616.5160946507738 -25.137132350809768
645.5378227205013 345.624355319601 298.3509875495609 -18.14868420224282 -10.258417991342114 -18.512936322575097 -408.90033702019963 513.8611685402572
0.0 0.0 0.0 0.0 2.2776268169503693 -26.61131151624586 -27.7430000184534 -19.9995
599.8793135114341 277.62210252004456 253.4040257354833 -27.42994127897258 600.1344181613886 105.57138975692672 54.60342321140074 -24.48756507679451
-75.675856885005 -109.27036051201189 -431.39921898189624 379.0839110323133 0.0 0.0 0.0 0.0
-36.80036034195687 -30.083678557445978 -40.296844962574674 -39.647554849005004
