AI_lab/lab_7_reinforcement_learning/saved_models/FrozenLake/QAgent/run-2024-06-04_13-26-40/model.npy (npy, 928 bytes, 1 tensors)

array f8 [25, 4]
0.0 0.0 0.0 0.0 542.0582033811093 335.1914979593143 183.90618657439916 844.7810375300911
246.41403521000632 88.66081126535222 70.79041678709278 -0.009949999999999987 53.89870447088176 36.85294157954971 79.43753222561057 0.0
27.18909593851291 28.742474939905822 26.788458710693952 60.81671008643945 0.0 0.0 0.0 0.0
482.95696357684636 58.53466032941696 46.596450348542035 -19.9807709995066 203.74078091754888 37.93312588249869 40.48077490664654 -1.0098458468382623
55.06139877746066 -12.059816387489615 14.864163641089883 -0.09995000000000001 47.63453767986861 5.238821304824284 15.495305908139756 -0.715725314000994
-311.0407765146617 150.46497000620616 -52.958047660735026 -90.78999495375088 347.5261491253546 174.7815066799738 79.18816114372416 -6.140185168827685
120.00754650834612 27.409089142302943 -3.8516109527512166 -4.449540147594758 -67.48415019158642 -218.25566569649544 -75.75351242658525 -15.419856240535324
15.919730974373238 -2.524137686919251 -0.6616545643286833 -0.8108459892284998 55.48203772525219 87.26821777083187 217.83746167233934 -17.043858160385508
269.82726048091973 166.25618683450207 134.26711345297133 -10.532378953585171 -45.9537235989796 -40.29682690013338 -420.2422246126202 148.4679298592897
0.0 0.0 0.0 0.0 -9.591698574197249 -11.448451515736265 -17.53409898386914 -19.9995
158.03830280807955 136.46434306762515 186.40106809552375 -17.059616647634122 212.56471780914123 156.2410922065071 98.4304289889028 -15.496238931051014
-44.05501754416173 -69.77822296659045 -394.9947088638118 101.68994440347541 0.0 0.0 0.0 0.0
-20.048287441338292 -29.32069503184881 -22.17260214423745 -29.709355456980948
00000000: 0000 0000 0000 0000 0000 0000 0000 0000
00000010: 0000 0000 0000 0000 0000 0000 0000 0000
00000020: 0c93 5533 77f0 8040 1708 2a60 10f3 7440
00000030: cca3 fc7a fffc 6640 85c5 9a90 3f66 8a40
00000040: d4cb c4c6 3fcd 6e40 0961 55bb 4a2a 5640
00000050: 77b1 4a30 96b2 5140 30f8 c264 aa60 84bf
00000060: 639a 83bf 08f3 4a40 44c8 8e30 2d6d 4240
00000070: 62fc 2987 00dc 5340 0000 0000 0000 0000
00000080: 29b8 6797 6830 3b40 bdfe 70d6 12be 3c40
00000090: 46ad 186e d8c9 3a40 0fc9 c3f4 8968 4e40
000000a0: 0000 0000 0000 0000 0000 0000 0000 0000
000000b0: 0000 0000 0000 0000 0000 0000 0000 0000
000000c0: 4b20 0ab9 4f2f 7e40 3fa8 eabf 6f44 4d40
000000d0: 8256 2a7c 584c 4740 ffbe e7ce 13fb 33c0
000000e0: f2cb 2e7a b477 6940 0731 3eab 70f7 4240
000000f0: 6564 3a08 8a3d 4440 89bf 621e 5428 f0bf
00000100: 9d9a 46ea db87 4b40 c610 e840 a01e 28c0
00000110: 25bf 21a8 73ba 2d40 1236 3cbd 5296 b9bf
00000120: c58e db87 38d1 4740 bf3b 7792 8df4 1440
00000130: a0f3 69bc 98fd 2e40 18b7 11c6 38e7 e6bf
00000140: ab4e 4605 a770 73c0 d848 c708 e1ce 6240
00000150: e16e 454e a17a 4ac0 5d97 fe46 8fb2 56c0
00000160: 7963 581b 6bb8 7540 fa02 4c1a 02d9 6540
00000170: 16ab 09d5 0acc 5340 20ff 6db3 8c8f 18c0
00000180: eba2 59a4 7b00 5e40 ff56 e710 ba68 3b40
00000190: e2da 3767 19d0 0ec0 4da2 a040 54cc 11c0
000001a0: d0cd 1551 fcde 50c0 06a5 d369 2e48 6bc0
000001b0: 0c54 2f8c 39f0 52c0 d03d ac65 f7d6 2ec0
000001c0: 401a 70fa e6d6 2f40 aa5a 7f19 6f31 04c0
000001d0: 6c4e 6131 462c e5bf 9a88 ba49 73f2 e9bf
000001e0: bdb2 8469 b3bd 4b40 737b de7a 2ad1 5540
000001f0: 3bcb 6b7c cc3a 6b40 bb84 d449 3a0b 31c0
00000200: 2d6d 7c75 3cdd 7040 457b bbae 32c8 6440
00000210: ac1a 8331 8cc8 6040 3b74 65f9 9310 25c0
00000220: 3985 699d 13fa 46c0 ae52 826c fe25 44c0
00000230: d757 ea26 e043 7ac0 144f 0a48 f98e 6240
00000240: 0000 0000 0000 0000 0000 0000 0000 0000
00000250: 0000 0000 0000 0000 0000 0000 0000 0000
00000260: b688 921d f32e 23c0 97db e36f 9be5 26c0
00000270: 778b 04b6 ba88 31c0 1d5a 643b dfff 33c0
00000280: 7e81 cfc6 39c1 6340 6132 fee5 db0e 6140
00000290: cb37 c28c d54c 6740 bee2 5f09 430f 31c0
000002a0: 5f37 152b 1292 6a40 97c8 0007 b787 6340
000002b0: a0a5 0726 8c9b 5840 72bb 7707 13fe 2ec0
000002c0: c070 9cd0 0a07 46c0 22a0 b367 ce71 51c0
000002d0: cf71 d753 eaaf 78c0 0c3f 920c 286c 5940
000002e0: 0000 0000 0000 0000 0000 0000 0000 0000
000002f0: 0000 0000 0000 0000 0000 0000 0000 0000
00000300: 015b d590 5c0c 34c0 c3c7 d111 1952 3dc0
00000310: 26b8 74a7 2f2c 36c0 e9f8 b851 98b5 3dc0
