AI_lab/lab_7_reinforcement_learning/saved_models/FrozenLake/QAgent/run-2024-06-04_13-26-40/model_best.npy (npy, 928 bytes, 1 tensors)

array f8 [25, 4]
0	0x0000000000000000	0.0
1	0x0000000000000000	0.0
2	0x0000000000000000	0.0
3	0x0000000000000000	0.0
4	0x407912578b5f933f	401.14637315115027
5	0x406d09057f58dea9	232.28192107541443
6	0x4061a46282cc560b	141.13702526006122
7	0x408aef387b203587	861.9025785938583
8	0x40440970c2b5fc7a	40.07375368009612
9	0x404300c034f29f36	38.00586568686269
10	0x40551719b7c5ec56	84.36094469383656
11	0xbf8460aa64c2f830	-0.009949999999999987
12	0x403ec3eaf77c2279	30.765304057890237
13	0x4034185bb7458eae	20.095149473649762
14	0x40448afcc5997a35	41.08583898538601
15	0x0000000000000000	0.0
16	0x403348eb246f54e1	19.284837987118298
17	0x4035283d61b882a3	21.157186610743008
18	0x4032ffd4b1df80bb	18.99933921534169
19	0x403c0ed297a6e0e8	28.057900884858924
20	0x0000000000000000	0.0
21	0x0000000000000000	0.0
22	0x0000000000000000	0.0
23	0x0000000000000000	0.0
24	0x407fd7c816271200	509.4863492513832
25	0x404a54fdc1f14e30	52.6639940670251
26	0x404024d1a216e167	32.287647496387585
27	0xc033fb13cee7beff	-19.9807709995066
28	0x403a26689bc5e442	26.150033698857676
29	0x40313de650ff3e9b	17.24179559928471
30	0x40457d8fc681ac08	42.980950177494435
31	0xbff028541e62bf89	-1.0098458468382623
32	0x40389368243ab06a	24.575807823494337
33	0xc02dbdb8982e877b	-14.870548968963467
34	0x4021c989e09ea4cf	8.893630046239563
35	0xbfb99652bd3c3612	-0.09995000000000001
36	0x403ed31fce1f9da6	30.82470405837889
37	0x400577fe1c45a1f6	2.683590145945568
38	0x402175148199a7d0	8.72867207527807
39	0xbfe6e738c611b718	-0.715725314000994
40	0xc07389d1d5d5ffa5	-312.61372932046135
41	0x405c51a4296c50fb	113.27564464166419
42	0xc046b5391d3f2b38	-45.4158054884378
43	0xc056b28f46fe975d	-90.78999495375088
44	0x407472c26f09d9e4	327.17246917579746
45	0x4060f9f0fa2c2cf0	135.8106661665729
46	0x404eb8c7256e77c8	61.44357746023121
47	0xc0188f8cb36dff20	-6.140185168827685
48	0x404f8722f2581956	63.0557539873286
49	0x4020ef28c0020d18	8.467107773065933
50	0xc01de5dc5e7d6744	-7.474473453907027
51	0xc011cc5440a0a24d	-4.449540147594758
52	0xc0515045797cba32	-69.2542403905907
53	0xc064685702eb13fb	-163.2606215087288
54	0xc051f71d279d4d52	-71.86115446435477
55	0xc03db96d6861ef4e	-29.724325679693088
56	0x40271a93862630f8	11.551906768953344
57	0xbffa5c486e91a60a	-1.64753001395218
58	0xbfeaf4bce4bc6474	-0.8423752276895713
59	0xbfe9f27349ba889a	-0.8108459892284998
60	0x4032a27a271342f2	18.63467640133144
61	0x404edc9eb91ed440	61.723593845418236
62	0x406af23ed7513140	215.5701710305966
63	0xc0310b3a49d484bb	-17.043858160385508
64	0x40708baf752de7ab	264.7303363602793
65	0x40605f25f981256c	130.9733855745684
66	0x4055dec129a82335	87.48053971690827
67	0xc0251093f965743b	-10.532378953585171
68	0xc0511ebfd08cc064	-68.48045743699328
69	0xc04ee8b5ee41c9b9	-61.81805208408645
70	0xc076609536fb66b3	-358.0364293880804
71	0x40629550fa84caac	148.66613508163334
72	0x0000000000000000	0.0
73	0x0000000000000000	0.0
74	0x0000000000000000	0.0
75	0x0000000000000000	0.0
76	0xc024e1d1e30968dd	-10.441054434679637
77	0xc026e59b6fe3db97	-11.448451515736265
78	0xc01dba7da7e9e7b0	-7.432119964267187
79	0xc02419999999999a	-10.05
80	0x405ce9ad8b695cf5	115.65121732034079
81	0x40596feb580079ce	101.74873924299683
82	0x406799a980dfc90b	188.8019413348014
83	0xc0310f43095fe2be	-17.059616647634122
84	0x406b2de8ab7b13da	217.43465208090385
85	0x405d344ec9495930	116.81730873263291
86	0x404ade1ded36b821	53.73528828784789
87	0xc02efe130777bb72	-15.496238931051014
88	0xc04a3b391cc8ae47	-52.4626804332625
89	0xc056851b84fe5fe3	-90.07980465737596
90	0xc075b06fbbada1cc	-347.02727859330184
91	0x4060b28780cc7f43	133.5790409082493
92	0x0000000000000000	0.0
93	0x0000000000000000	0.0
94	0x0000000000000000	0.0
95	0x0000000000000000	0.0
96	0xc0340c5c90d55b01	-20.048287441338292
97	0xc03d521911d1c7c3	-29.32069503184881
98	0xc0362c2fa774b826	-22.17260214423745
99	0xc03db59851b8f8e9	-29.709355456980948
