AI_lab/lab_7_reinforcement_learning/saved_models/FrozenLake/QAgent/run-2024-06-04_13-25-23/model_best.npy (npy, 928 bytes, 1 tensors)

array f8 [25, 4]
0	0x0000000000000000	0.0
1	0x0000000000000000	0.0
2	0x0000000000000000	0.0
3	0x0000000000000000	0.0
4	0x402c943ca2cf5a66	14.289525115787182
5	0x405c9cfd0cd3cd79	114.45294495281077
6	0x400521de83f5df1b	2.641537695828345
7	0x0000000000000000	0.0
8	0x403f827d3b656538	31.509723388914807
9	0x40342bf8ea96e37e	20.171766912305877
10	0x40593be40b20a907	100.93579366864661
11	0x0000000000000000	0.0
12	0x405711e728f2db3f	92.27973388401459
13	0x4054eb1a8e730c39	83.6734958766473
14	0x405c1072655fe8f0	112.25698217741206
15	0x0000000000000000	0.0
16	0x40556a8cd167904f	85.66484484780925
17	0x405455bae9bb33b1	81.3395332649368
18	0x4054c520f4c3a055	83.08013648132449
19	0x405a19995b3bf3e3	104.39998513083223
20	0x0000000000000000	0.0
21	0x0000000000000000	0.0
22	0x0000000000000000	0.0
23	0x0000000000000000	0.0
24	0xc0493a166fe0c4e6	-50.453809723616175
25	0xc050ac2f74456eb0	-66.69039637356286
26	0x4029bfa80714337b	12.874328824249224
27	0xc04cde6683708327	-57.73750346177831
28	0x4054df5a64f70e95	83.48989223601014
29	0x4021ee0eb3c426e1	8.964955918974228
30	0x40280266a6bebc88	12.004689417632349
31	0xbff2061ef0d2105d	-1.1264943511059962
32	0x4058b62efd53e458	98.8466180152185
33	0x4014c230981abff5	5.189638497002297
34	0x403e31289a0ad635	30.192025783200922
35	0x0000000000000000	0.0
36	0x40592f11d37edada	100.73546302211926
37	0x401e268dd6f5836c	7.537650450453707
38	0x4038d20102020750	24.820327878470664
39	0x0000000000000000	0.0
40	0xc07695c048789f19	-361.3594441139008
41	0xc054f6e5ecbbcf28	-83.85778349247687
42	0xc05e4c238db1357c	-121.18967001252707
43	0xc05eed3b95889d51	-123.70676172581922
44	0xc031bc4cffe7cf6c	-17.735549921125696
45	0xc0375494e8733ca6	-23.33039715588952
46	0x4040bf206b0609d5	33.493176820705834
47	0xc031883e3e95fb3e	-17.53219977533012
48	0x404ca756fc1279da	57.30734206106327
49	0xc02cd3b64f1157ea	-14.413500281207195
50	0xc013794727bffb69	-4.868435498325973
51	0xc01936c1a48a595d	-6.3034730634156775
52	0x401f54ba2a169f94	7.832741410857029
53	0xc0655b3a5fd7c90c	-170.85087577958654
54	0xc03b21dcbcd772d8	-27.132274439430006
55	0xc034b993793b53a5	-20.724906517967288
56	0x404c1ec4058e4449	56.24035710760706
57	0x3feb8cfffe5c7250	0.8609619110098468
58	0x3fe2c7c038a5e723	0.5868836504371057
59	0xbfc132503de96896	-0.13434794447932025
60	0xc047c0238f3f3650	-47.501085191598236
61	0xc04377efdc8d7774	-38.9370074930911
62	0xc020813bfdb65c49	-8.252410820494463
63	0xc04491114b348807	-41.13334026398666
64	0x4024fe1ae989593b	10.496299074188405
65	0xc03eda5a16f33498	-30.85293715894349
66	0xc041a7b1dbdaecad	-35.31011532010721
67	0xc03c259e51e18bc8	-28.146947019162127
68	0xc05341afa785d6d3	-77.02634609289389
69	0xc0561117427fe41b	-88.26704466332778
70	0xc078bf9667e4733c	-395.97422017324766
71	0xc04a6d418ee49dab	-52.85356317675481
72	0x0000000000000000	0.0
73	0x0000000000000000	0.0
74	0x0000000000000000	0.0
75	0x0000000000000000	0.0
76	0xc0449ef5e30f976b	-41.2418788744097
77	0x4030434c320e0656	16.26288140146638
78	0xc022fbb31fd32453	-9.491600985073239
79	0xc02419999999999a	-10.05
80	0xc03176af211b28db	-17.4636097613628
81	0xc044864ed8352643	-41.04928114504994
82	0xc044b27e652e3916	-41.39448227650625
83	0xc04539c473e7c570	-42.45130776230769
84	0xc037f14f1d49217b	-23.942613439897723
85	0xc044002102e448b4	-40.001007424799724
86	0xc04623b76bb1f06b	-44.27903505505022
87	0xc04409dc5ba5e9ed	-40.07703729249247
88	0xc05976cf1adfd33c	-101.8563906846802
89	0xc05dca708382e51c	-119.16311729223929
90	0xc07e39d40f836404	-483.6142726070832
91	0xc05e12b57fd6d66d	-120.2923278425239
92	0x0000000000000000	0.0
93	0x0000000000000000	0.0
94	0x0000000000000000	0.0
95	0x0000000000000000	0.0
96	0xc04173fc458aea4c	-34.90613621981592
97	0xc045b18407a920f6	-43.38684173353424
98	0xc0454266ea089076	-42.51876569193057
99	0xc043ccede4dfe909	-39.60100995
