AI_lab/lab_7_reinforcement_learning/saved_models/FrozenLake/QAgent/run-2024-06-04_13-25-23/model.npy (npy, 928 bytes, 1 tensors)

array f8 [25, 4]
0.0 0.0 0.0 0.0 22.93110147371112 170.43433422356514 19.430361734991553 0.0
94.42530834648005 83.00453968345957 141.75231713987952 0.0 142.5810069571607 130.80363951922394 152.0859403546489 0.0
134.305967908559 131.34426238627225 133.58400399368747 143.910506105854 0.0 0.0 0.0 0.0
-45.815184003916215 -44.951701983377795 39.744646520455184 -57.73750346177831 119.92786452448586 47.082006515100396 66.59596250603987 -1.1264943511059962
137.76970776651683 45.24979344324911 84.05980191952717 0.0 135.71338819841168 66.6467765065152 96.41931596187811 0.0
-416.42544926341395 -88.74078829664919 -126.30709343086215 -123.70676172581922 11.018671595136823 4.819536896702749 74.32548489049405 -17.53219977533012
101.07312330381366 -10.459849538241246 22.622788764167886 -6.3034730634156775 53.277769877077134 -250.9219100858352 -33.64883711583243 -20.724906517967288
112.22245282641153 0.7537689776953775 9.591671174915996 -0.13434794447932025 -56.45576112878815 -11.059397042293055 28.541301412795345 -41.13334026398666
52.150775422995586 -11.613591902923261 -23.203873221361903 -28.146947019162127 -79.57630211746422 -109.79030293527087 -458.7653381014526 -21.503488601083077
0.0 0.0 0.0 0.0 -49.9415189289249 -15.002738042439981 -28.27540691007825 -29.849505
23.081066064210585 -16.029523870609026 -14.515630490371137 -42.45130776230769 32.924148292986295 -35.08003188121682 -45.84236278041237 -40.07703729249247
-127.10346468749557 -134.71590167078807 -499.09995009638027 -66.94761295877423 0.0 0.0 0.0 0.0
-57.32974423257419 -63.18676896606732 -62.547017503727844 -58.53463612239275
00000000: 0000 0000 0000 0000 0000 0000 0000 0000
00000010: 0000 0000 0000 0000 0000 0000 0000 0000
00000020: bfd8 8aaa 5cee 3640 deb7 e210 e64d 6540
00000030: 113d c92f 2c6e 3340 0000 0000 0000 0000
00000040: 40b6 7f40 389b 5740 8eff cf60 4ac0 5440
00000050: 1700 65fb 12b8 6140 0000 0000 0000 0000
00000060: 1ef8 e69b 97d2 6140 e19a 396a b759 6040
00000070: f593 fc05 c002 6340 0000 0000 0000 0000
00000080: 5e1c 367d cac9 6040 0849 8d32 046b 6040
00000090: e0b3 2429 b0b2 6040 716e b3dd 22fd 6140
000000a0: 0000 0000 0000 0000 0000 0000 0000 0000
000000b0: 0000 0000 0000 0000 0000 0000 0000 0000
000000c0: 7085 0ef3 57e8 46c0 af12 df5e d179 46c0
000000d0: b537 c293 50df 4340 2783 7083 66de 4cc0
000000e0: 43f2 e221 62fb 5d40 2335 8230 7f8a 4740
000000f0: 5745 ec3f 24a6 5040 5d10 d2f0 1e06 f2bf
00000100: 5895 2e72 a138 6140 4dc1 463b f99f 4640
00000110: dd26 6ecb d303 5540 0000 0000 0000 0000
00000120: fab0 7c13 d4f6 6040 73d3 49c9 64a9 5040
00000130: 44bd 9d12 d61a 5840 0000 0000 0000 0000
00000140: 8607 e3a3 ce06 7ac0 8ad7 5013 692f 56c0
00000150: a497 346b a793 5fc0 519d 8895 3bed 5ec0
00000160: 20f4 c452 8f09 2640 86d0 24ae 3447 1340
00000170: e700 94be d494 5240 3efb 953e 3e88 31c0
00000180: 219d 5d0d ae44 5940 59a7 0f66 71eb 24c0
00000190: d66a 9e15 6f9f 3640 5d59 8aa4 c136 19c0
000001a0: 1cee 9cf6 8da3 4a40 7990 9449 805d 6fc0
000001b0: 3377 3818 0dd3 40c0 a553 3b79 93b9 34c0
000001c0: c795 c7aa 3c0e 5c40 ac1c 7e1e e01e e83f
000001d0: 0d80 3486 ef2e 2340 9668 e93d 5032 c1bf
000001e0: 7177 7361 563a 4cc0 6f41 044a 691e 26c0
000001f0: 0f3c b9ba 928a 3c40 0788 344b 1191 44c0
00000200: 3f67 eb9b 4c13 4a40 a84a c8b7 283a 27c0
00000210: 9047 1209 3134 37c0 c88b e151 9e25 3cc0
00000220: f6c7 4622 e2e4 53c0 f53a c352 9472 5bc0
00000230: f241 2ad3 3eac 7cc0 848f 03a1 e480 35c0
00000240: 0000 0000 0000 0000 0000 0000 0000 0000
00000250: 0000 0000 0000 0000 0000 0000 0000 0000
00000260: 1126 38b1 83f8 48c0 3578 75e1 6601 2ec0
00000270: e5e0 3711 8146 3cc0 dac9 e028 79d9 3dc0
00000280: 9399 debe c014 3740 94b7 5ae0 8e07 30c0
00000290: d0ed 39b8 0008 2dc0 70c5 e773 c439 45c0
000002a0: e383 c37d 4a76 4040 573b 147c 3e8a 41c0
000002b0: 909e 288b d2eb 46c0 ede9 a55b dc09 44c0
000002c0: 6645 5a2a 9fc6 5fc0 f8e5 9eaa e8d6 60c0
000002d0: f7b2 4565 9931 7fc0 dfcc d2b0 a5bc 50c0
000002e0: 0000 0000 0000 0000 0000 0000 0000 0000
000002f0: 0000 0000 0000 0000 0000 0000 0000 0000
00000300: b379 1b0f 35aa 4cc0 5c95 a40b e897 4fc0
00000310: e26c 68ab 0446 4fc0 f377 daf4 6e44 4dc0
