AI_lab/lab_7_reinforcement_learning/saved_models/FrozenLake/QAgent/run-2024-06-04_13-26-12/model.npy (npy, 928 bytes, 1 tensors)

array f8 [25, 4]
0.0 0.0 0.0 0.0 363.0041350938045 40.2997266462672 51.129640102273825 0.0
74.81300990313406 79.44985386717066 163.89461644668083 -0.05 154.89927822065843 146.7184354725707 164.1471519927724 0.0
145.15344432254943 147.84742437194873 146.23800506927708 157.0264013693115 0.0 0.0 0.0 0.0
2.0270125289761642 -17.003159567658656 111.41703546068402 -29.271688311758734 82.59714192894202 60.196219603968586 139.22559357108176 -0.9600002259673381
152.75310834944867 65.49340596451228 109.83892368242226 -0.05 157.02104415267522 85.39435184385758 104.4487280933049 0.0
-404.070594837301 -2.70405860444382 -80.83912639033052 -96.40801127380531 25.179989761251544 16.938478750874314 93.00727779623318 -14.876650490329
110.83483252339002 2.758089768456113 26.22499976346333 -7.508508772069078 81.87833849953215 -303.45081968051977 -40.34333284078393 -56.089740632381336
124.08075238147065 -2.7711002002033633 11.708351934165993 -0.15331415107228713 -36.02528502832211 -27.4824092064861 52.3633650822426 -35.15280032603883
71.15131994222547 2.588633303264164 -9.006023970898516 -26.63214459439382 -73.53227721062474 -96.27766395091606 -434.76353642209034 -12.590694350004272
0.0 0.0 0.0 0.0 0.5083576765813256 -20.228082373082472 -20.705439265202138 -27.36566121590253
-3.7878234933588777 -7.003469787254961 48.74340133898774 -37.63673556846392 56.198280526810976 1.8733640431665826 -25.59500428484993 -34.11702713810679
-72.76935266493358 -88.51059908078659 -432.45212927857256 8.288747303126318 0.0 0.0 0.0 0.0
-11.066096563419453 -1.8704156643696348 -9.866857935858798 -10.05
00000000: 0000 0000 0000 0000 0000 0000 0000 0000
00000010: 0000 0000 0000 0000 0000 0000 0000 0000
00000020: 80ca f5ef 10b0 7640 8cba 5771 5d26 4440
00000030: 12c2 ff0b 9890 4940 0000 0000 0000 0000
00000040: 3c52 b05a 08b4 5240 89de df67 cadc 5340
00000050: a79e abb2 a07c 6440 9a99 9999 9999 a9bf
00000060: 7577 1ee3 c65c 6340 475f 636c fd56 6240
00000070: f58f 1878 b584 6440 0000 0000 0000 0000
00000080: 6a63 1104 e924 6240 4d6b b719 1e7b 6240
00000090: 799a cebc 9d47 6240 6638 af47 d8a0 6340
000000a0: 0000 0000 0000 0000 0000 0000 0000 0000
000000b0: 0000 0000 0000 0000 0000 0000 0000 0000
000000c0: 6e47 4458 5237 0040 70c3 bf10 cf00 31c0
000000d0: 403a 80b5 b0da 5b40 8fb5 7d5d 8d45 3dc0
000000e0: 16f8 c792 37a6 5440 88f0 56b9 1d19 4e40
000000f0: 7d3f 0210 3867 6140 a0d5 d564 52b8 eebf
00000100: 4067 ae76 1918 6340 d24e 9cf6 935f 5040
00000110: fcf5 f4ec b075 5b40 9a99 9999 9999 a9bf
00000120: 6370 c964 aca0 6340 141f 840f 3d59 5540
00000130: 9f62 09f6 b71c 5a40 0000 0000 0000 0000
00000140: 9657 0d28 2141 79c0 ca6d 447a e9a1 05c0
00000150: 87eb 2c3f b435 54c0 2959 51db 1c1a 58c0
00000160: b330 1acf 132e 3940 01ff b624 40f0 3040
00000170: be33 4a3d 7740 5740 89f8 4355 d8c0 2dc0
00000180: 3a66 64e5 6db5 5b40 189c 575e 9110 0640
00000190: c8ae a195 9939 3a40 3010 0786 b608 1ec0
000001a0: bb93 aeb2 3678 5440 9c83 b28e 36f7 72c0
000001b0: a667 9d54 f22b 44c0 a099 fc9e 7c0b 4cc0
000001c0: 655f 090c 2b05 5f40 ff7f ee94 362b 06c0
000001d0: 429a ce1a ad6a 2740 024b 6f50 cc9f c3bf
000001e0: 67dc 308a 3c03 42c0 a925 752b 7f7b 3bc0
000001f0: c35e 3cbf 822e 4a40 d493 09f6 8e93 41c0
00000200: d3c5 d639 afc9 5140 29d9 9660 85b5 0440
00000210: 9b00 ec92 1503 22c0 c043 673a d4a1 3ac0
00000220: 8502 6fd4 1062 52c0 9c1d 053f c511 58c0
00000230: eda2 f771 372c 7bc0 9166 667d 6f2e 29c0
00000240: 0000 0000 0000 0000 0000 0000 0000 0000
00000250: 0000 0000 0000 0000 0000 0000 0000 0000
00000260: 7acb 7251 7744 e03f ec2e 3d9b 633a 34c0
00000270: 825b edaa 97b4 34c0 8bb7 33f9 9b5d 3bc0
00000280: 8ef9 5767 764d 0ec0 f422 7b95 8d03 1cc0
00000290: a260 6bc6 275f 4840 5260 158d 80d1 42c0
000002a0: 1c0b 9d41 6119 4c40 e371 2e93 4cf9 fd3f
000002b0: 0b69 6833 5298 39c0 e274 c9be fa0e 41c0
000002c0: bbbe f512 3d31 52c0 2656 c4a7 ad20 56c0
000002d0: 8810 e9eb 3b07 7bc0 b278 bfaf d693 2040
000002e0: 0000 0000 0000 0000 0000 0000 0000 0000
000002f0: 0000 0000 0000 0000 0000 0000 0000 0000
00000300: 7287 a468 d721 26c0 924c c6f9 38ed fdbf
00000310: 4d95 a9cd d4bb 23c0 9a99 9999 9919 24c0
