AI_lab/lab_7_reinforcement_learning/saved_models/FrozenLake/QAgent/run-2024-06-04_13-26-12/model_best.npy (npy, 928 bytes, 1 tensors)

array f8 [25, 4]
000000 00 00 00 00 00 00 00 00 00 00 00 00 00 00 00 00
       0.0 0.0
000010 00 00 00 00 00 00 00 00 00 00 00 00 00 00 00 00
       0.0 0.0
000020 0e 1b d9 bb a9 c3 72 40 9f e0 4f f7 08 d7 38 40
       300.22893891150386 24.839980561257672
000030 66 de 10 7e a4 22 41 40 00 00 00 00 00 00 00 00
       34.270644911038104 0.0
000040 78 c4 30 b8 27 9b 32 40 cb 78 3b c9 ff 0f 2b 40
       18.606074821382634 13.531248367795703
000050 6b ee a4 fd e7 a7 5b 40 9a 99 99 99 99 99 a9 bf
       110.62353459459852 -0.05
000060 4d 29 0b 97 3e 00 57 40 e8 74 9e 97 76 87 54 40
       92.00382019128774 82.11661329721721
000070 d7 35 43 3e 7a 1b 5c 40 00 00 00 00 00 00 00 00
       112.42933613360889 0.0
000080 38 da 1c bc bd d2 55 40 f6 f4 9c f7 9b 4d 56 40
       87.29283049409503 89.21264448478527
000090 88 93 f0 df d8 a6 55 40 bc 70 8f 45 1c 06 5a 40
       86.60698698514727 104.09547556884621
0000a0 00 00 00 00 00 00 00 00 00 00 00 00 00 00 00 00
       0.0 0.0
0000b0 00 00 00 00 00 00 00 00 00 00 00 00 00 00 00 00
       0.0 0.0
0000c0 d2 9e 17 cf 17 12 31 c0 d8 4a e6 89 9d 04 40 c0
       -17.070675795809457 -32.03605769867653
0000d0 63 0b 77 25 cc 56 48 40 8f b5 7d 5d 8d 45 3d c0
       48.67810505211562 -29.271688311758734
0000e0 27 9f ad d3 01 50 29 40 01 72 a8 55 27 77 1d 40
       12.65626393789678 7.366360987096869
0000f0 b6 b7 69 85 b2 e3 54 40 a0 d5 d5 64 52 b8 ee bf
       83.55777106594073 -0.9600002259673381
000100 7a 66 fe a7 4f 19 58 40 cc f4 74 b9 67 ef 18 c0
       96.3954868301752 -6.233794114840929
000110 bb 28 64 20 d5 c3 40 40 9a 99 99 99 99 99 a9 bf
       33.52994160547811 -0.05
000120 c3 f7 70 c3 23 b0 5a 40 b6 3d 07 53 ff b1 33 40
       106.75218282730116 19.695302190082394
000130 7b a2 5b ad b8 bc 43 40 00 00 00 00 00 00 00 00
       39.47438590025282 0.0
000140 e0 03 fe 20 70 19 79 c0 b0 2b 3a 29 f1 df 55 c0
       -401.58987521385825 -87.49909430199364
000150 34 26 eb 53 18 ac 4e c0 57 e4 e4 6c 3e 8e 55 c0
       -61.344492425745926 -86.22256014206629
000160 1c 82 ba 79 83 12 28 c0 07 05 a8 18 5a 58 2c c0
       -12.03615932847702 -14.17256238032361
000170 8d d0 7b aa 30 8c 42 40 89 f8 43 55 d8 c0 2d c0
       37.095235166984914 -14.876650490329
000180 a4 c0 8f 12 21 b6 4c 40 40 e1 f6 92 ef 85 33 c0
       57.42288429278531 -19.523186860345277
000190 d3 d4 7d bf f1 82 27 c0 30 10 07 86 b6 08 1e c0
       -11.755750640974304 -7.508508772069078
0001a0 0b 38 09 8b 2a 7d 3a 40 a2 95 cb bb 49 62 6c c0
       26.488930406332695 -227.07150068056677
0001b0 38 ca b5 d7 a0 67 51 c0 a0 99 fc 9e 7c 0b 4c c0
       -69.61919205429956 -56.089740632381336
0001c0 a4 05 7a 12 bc 5e 50 40 81 b1 fc 7b 7c d0 00 c0
       65.4802290145513 -2.1017999350062273
0001d0 7a 25 c2 9a 57 98 ca 3f 02 4b 6f 50 cc 9f c3 bf
       0.2077741151481794 -0.15331415107228713
0001e0 81 3a 5c f6 dc b1 42 c0 bd ef a0 e4 61 78 41 c0
       -37.389555735619986 -34.94048745973803
0001f0 62 70 57 74 05 57 33 c0 d4 93 09 f6 8e 93 41 c0
       -19.339926978442584 -35.15280032603883
000200 6d 68 9a dd 89 10 25 40 3a bd 34 6f ac fd 3c c0
       10.532301831339476 -28.990912390113614
000210 59 04 54 12 8e d1 41 c0 c0 43 67 3a d4 a1 3a c0
       -35.63714818098442 -26.63214459439382
000220 73 23 2a bf 66 96 57 c0 54 39 48 d1 72 b5 58 c0
       -94.35002116313062 -98.83513290455932
000230 6d 93 af 5a e3 92 78 c0 92 e2 77 01 a4 29 4f c0
       -393.1805064066346 -62.32531755784761
000240 00 00 00 00 00 00 00 00 00 00 00 00 00 00 00 00
       0.0 0.0
000250 00 00 00 00 00 00 00 00 00 00 00 00 00 00 00 00
       0.0 0.0
000260 ad 23 3c 8e 6a 58 25 c0 64 48 1d c7 b0 e4 36 c0
       -10.672687954751234 -22.893322415017238
000270 78 68 fb d0 04 cc 34 c0 82 80 96 ca 95 7d 31 c0
       -20.79694849145787 -17.49056688475003
000280 cd 2d 8f 7e 91 60 42 c0 37 52 9b 5a e9 31 42 c0
       -36.754440135871484 -36.38993389686623
000290 85 e0 31 ba b1 0f 31 c0 52 60 15 8d 80 d1 42 c0
       -17.06130565374089 -37.63673556846392
0002a0 db 61 08 70 2b 89 14 c0 1a ae 4e e9 a0 d7 40 c0
       -5.133954763900387 -33.684598124902735
0002b0 08 11 e7 5e 65 15 42 c0 e2 74 c9 be fa 0e 41 c0
       -36.16715608866258 -34.11702713810679
0002c0 84 ca e7 75 22 20 54 c0 ff 05 83 a5 e9 b3 54 c0
       -80.50210330615852 -82.81113565249687
0002d0 72 21 b9 d7 5a 32 79 c0 de 6b e9 61 45 12 50 c0
       -403.1471783858934 -64.285484769774
0002e0 00 00 00 00 00 00 00 00 00 00 00 00 00 00 00 00
       0.0 0.0
0002f0 00 00 00 00 00 00 00 00 00 00 00 00 00 00 00 00
       0.0 0.0
000300 72 87 a4 68 d7 21 26 c0 c9 84 76 99 61 21 f6 bf
       -11.066096563419453 -1.383149718727781
000310 4d 95 a9 cd d4 bb 23 c0 9a 99 99 99 99 19 24 c0
       -9.866857935858798 -10.05
