AI_lab/lab_7_reinforcement_learning/saved_models/FrozenLake/QAgent/run-2024-06-04_13-23-10/model.npy (npy, 928 bytes, 1 tensors)

array f8 [25, 4]
0.0 0.0 0.0 0.0 617.4707978991444 241.5638847830237 286.34268438767526 845.1542128838457
261.611172834143 171.19258071635932 124.9036722574213 0.0 92.1679648500672 121.50510857805678 83.73301902358662 0.0
52.00224005120278 52.2808608434255 57.8407322939963 114.33099102088855 0.0 0.0 0.0 0.0
407.3544103205106 -130.50460363449739 -44.883114929971725 -182.99725654375823 224.3795218097665 100.5072623507885 87.80456518089227 -1.9002154999999998
126.47867034664694 24.86729542741245 45.423660076020504 -0.5 47.81479592111926 6.61439237520883 17.65021219239018 141.71792153142215
-661.1086934086644 -28.23135311150081 -237.9451086065394 -245.795726043371 73.10297494452314 32.987526621179555 208.43184182011714 -49.05184483263063
173.1474206485387 42.69689320973266 23.448858310746246 -18.422415827900803 89.31063069618257 -287.10423531176264 -321.18536217501554 -261.8645677854669
57.593295919813556 -25.348120992080286 -16.634614830316686 -29.874979281907862 3.61882340753014 1.4586444545129016 97.69409686657932 -67.79104693841734
131.3385283221419 18.944603821968617 12.254382094884598 -41.710484261819836 2.2578799566145977 -226.73793066424506 -519.2363539500001 -228.83641293897034
0.0 0.0 0.0 0.0 -158.85782095518346 -72.77189268524656 -150.52783284082508 -190.4955
20.447178088073365 22.760254057174027 78.19443377844483 -41.93825455463651 95.8918709016295 2.1058175429712973 0.3898949729679311 -40.99285987283214
-174.19150948126241 -212.0381909648636 -308.54531718055097 24.421697009840173 0.0 0.0 0.0 0.0
-301.30163858652645 -294.4036147394612 -271.2356470208047 -330.16324290220484
00000000: 0000 0000 0000 0000 0000 0000 0000 0000
00000010: 0000 0000 0000 0000 0000 0000 0000 0000
00000020: ce5e b031 c44b 8340 90b9 1958 0b32 6e40
00000030: a4de 9fa2 7be5 7140 eae5 f6d3 3b69 8a40
00000040: 916d 2a5d c759 7040 50d3 089f 2966 6540
00000050: 54fb 29c4 d539 5f40 0000 0000 0000 0000
00000060: a27a a4ef bf0a 5740 b5eb edb2 5360 5e40
00000070: a069 9fc8 e9ee 5440 0000 0000 0000 0000
00000080: 2354 e966 4900 4a40 a89e 843f f323 4a40
00000090: dcb3 a51d 9deb 4c40 1a7f f6f4 2e95 5c40
000000a0: 0000 0000 0000 0000 0000 0000 0000 0000
000000b0: 0000 0000 0000 0000 0000 0000 0000 0000
000000c0: 54ff 27aa ab75 7940 7d73 85b6 2550 60c0
000000d0: 406b f7e8 0971 46c0 3c25 8e86 e9df 66c0
000000e0: 1b22 ec0a 250c 6c40 3cc8 81fc 7620 5940
000000f0: b0db f4fe 7df3 5540 f8a2 3d5e 4867 febf
00000100: 781a f388 a29e 5f40 f2b4 b812 07de 3840
00000110: 8190 4d7e 3ab6 4640 0000 0000 0000 e0bf
00000120: 8b0f 953b 4be8 4740 18bc 5946 2375 1a40
00000130: bac6 654e 74a6 3140 ad51 9336 f9b6 6140
00000140: 095c a69a dea8 84c0 4cb9 1ff5 393b 3cc0
00000150: 2888 6754 3ebe 6dc0 539b 7696 76b9 6ec0
00000160: 32c2 3824 9746 5240 a2f2 b645 677e 4040
00000170: 58ce efa5 d10d 6a40 bd4e fad9 a286 48c0
00000180: 5307 82ab b7a4 6540 994d f4cb 3359 4540
00000190: 6431 d560 e872 3740 8f25 9671 236c 32c0
000001a0: 394f 925f e153 5640 be71 a5f2 aaf1 71c0
000001b0: b7f9 533e f712 74c0 16bc 0745 d55d 70c0
000001c0: 8839 e61e f1cb 4c40 3109 1475 1e59 39c0
000001d0: 4ac4 151e 76a2 30c0 ca78 68a4 fedf 3dc0
000001e0: d8ba caaf 59f3 0c40 a8fe 4991 9b56 f73f
000001f0: b68d 4315 6c6c 5840 9e86 5683 a0f2 50c0
00000200: d10b 5939 d56a 6040 2508 5b8e d1f1 3240
00000210: 446f b45e 3e82 2840 616b f625 f1da 44c0
00000220: f7a0 df5d 2310 0240 bdb4 c420 9d57 6cc0
00000230: 3f2c 8a0d e439 80c0 865a 11e5 c39a 6cc0
00000240: 0000 0000 0000 0000 0000 0000 0000 0000
00000250: 0000 0000 0000 0000 0000 0000 0000 0000
00000260: c48a ee44 73db 63c0 f5c9 93b0 6631 52c0
00000270: 27a3 b201 e4d0 62c0 60e5 d022 dbcf 67c0
00000280: 4ec3 5f43 7a72 3440 b936 8802 a0c2 3640
00000290: 21ea 5f9a 718c 5340 51be a9b9 18f8 44c0
000002a0: 2db0 b069 14f9 5740 063d 33de b6d8 0040
000002b0: 9069 710b 0af4 d83f 92a9 4508 167f 44c0
000002c0: acdc 7dd8 20c6 65c0 f022 42dc 3881 6ac0
000002d0: 9d06 829e b948 73c0 a415 d255 f46b 3840
000002e0: 0000 0000 0000 0000 0000 0000 0000 0000
000002f0: 0000 0000 0000 0000 0000 0000 0000 0000
00000300: 7c85 fb82 d3d4 72c0 b6a2 ba34 7566 72c0
00000310: 197c cf35 c5f3 70c0 62e4 96a4 9ca2 74c0
