AI_lab/lab_7_reinforcement_learning/saved_models/FrozenLake/QAgent/run-2024-06-04_13-23-10/model_best.npy (npy, 928 bytes, 1 tensors)

array f8 [25, 4]
0.0 0.0 0.0 0.0 288.2314377460518 178.45722633677065 69.6319071917722 927.6772723433686
17.249177506966326 261.99601535686855 26.07229593891162 0.0 22.35503458182256 22.32556436053234 85.84639923680207 0.0
15.675693998403277 10.496142555883717 14.231241106462706 45.67687071689411 0.0 0.0 0.0 0.0
591.4180959625983 -87.30380141427338 -2.610924540924943 -182.99725654375823 146.61420043162218 1.723378492837865 0.6228944916420058 -1.9002154999999998
43.84159458254375 -14.384920316880688 -3.8828088203857045 -0.5 -0.19523808501086337 0.6513938254172861 5.291651940752365 21.16058170776977
-580.4428313687215 -143.17244453093457 137.37102973595455 -245.795726043371 454.7897471207638 91.7207987601986 -1.9806848910896795 -49.05184483263063
90.98636525621983 -11.764926001989505 -7.679337626348756 -18.422415827900803 -53.776155096705516 -258.39277907192024 -290.36461320864305 -261.8645677854669
4.992144487370168 -29.408800459465574 -29.714248321497823 -29.874979281907862 4.319475151077176 -34.81151803047365 256.81380960819376 -67.79104693841734
349.3369976519226 36.41999526619837 58.370919131206946 -41.710484261819836 -196.8135240148821 -169.35548318276645 -465.26261550000004 174.19535301476546
0.0 0.0 0.0 0.0 -80.61316405290225 -122.660347861524 -150.52783284082508 -190.4955
80.68309976571408 66.07301940174459 225.14867215315758 -41.93825455463651 245.64585095244266 126.75376766858255 25.493975408154057 -40.99285987283214
-105.79835109622827 -123.93132329429285 -231.1614635339455 197.16937971939248 0.0 0.0 0.0 0.0
-223.11293176280714 -225.73228806458343 -243.459144687255 -255.18138100244983
00000000: 0000 0000 0000 0000 0000 0000 0000 0000
00000010: 0000 0000 0000 0000 0000 0000 0000 0000
00000020: a4e5 10f8 b303 7240 9869 2099 a14e 6640
00000030: 34b1 dc2a 7168 5140 072a c30d 6bfd 8c40
00000040: b651 db18 ca3f 3140 0781 ccad ef5f 7040
00000050: 4f42 95fc 8112 3a40 0000 0000 0000 0000
00000060: 7fe0 dd8b e35a 3640 c43a 992f 5853 3640
00000070: 275b b467 2b76 5540 0000 0000 0000 0000
00000080: b97d 5290 f459 2f40 4d59 a765 06fe 2440
00000090: 117f fb3b 6576 2c40 1357 1cb3 a3d6 4640
000000a0: 0000 0000 0000 0000 0000 0000 0000 0000
000000b0: 0000 0000 0000 0000 0000 0000 0000 0000
000000c0: 982f b242 587b 8240 18b2 7c7b 71d3 55c0
000000d0: 84c5 dc67 2ce3 04c0 3c25 8e86 e9df 66c0
000000e0: 34e0 a987 a753 6240 f8e4 9553 f592 fb3f
000000f0: 30c0 ce6d c0ee e33f f8a2 3d5e 4867 febf
00000100: 1242 0c5f b9eb 4540 1423 9946 14c5 2cc0
00000110: 5f6a 2112 fe0f 0fc0 0000 0000 0000 e0bf
00000120: ec14 07c3 8ffd c8bf 7779 1fdd 37d8 e43f
00000130: a662 6dce a62a 1540 fd34 ffe1 1b29 3540
00000140: 6a32 2ceb 8a23 82c0 9e97 64aa 84e5 61c0
00000150: 96b8 c079 df2b 6140 539b 7696 76b9 6ec0
00000160: a77c e0cd a26c 7c40 3983 1f91 21ee 5640
00000170: 7c95 eea3 e2b0 ffbf bd4e fad9 a286 48c0
00000180: fd57 bd9b 20bf 5640 56cf 8461 a487 27c0
00000190: d270 6048 a4b7 1ec0 8f25 9671 236c 32c0
000001a0: a97c da0c 59e3 4ac0 3647 b5d2 4826 70c0
000001b0: fcec a874 d525 72c0 16bc 0745 d55d 70c0
000001c0: 6fa5 78b9 f4f7 1340 92fe 9b25 a768 3dc0
000001d0: 590e 5efa d8b6 3dc0 ca78 68a4 fedf 3dc0
000001e0: 660b 777e 2447 1140 d47f a4d2 df67 41c0
000001f0: ce45 395d 050d 7040 9e86 5683 a0f2 50c0
00000200: 625d a657 64d5 7540 fe65 a667 c235 4240
00000210: 4eff 3047 7a2f 4d40 616b f625 f1da 44c0
00000220: bccd 8363 089a 68c0 5188 441e 602b 65c0
00000230: c47e 4fac 3314 7dc0 f732 f754 40c6 6540
00000240: 0000 0000 0000 0000 0000 0000 0000 0000
00000250: 0000 0000 0000 0000 0000 0000 0000 0000
00000260: 1293 7014 3e27 54c0 aa4e ad23 43aa 5ec0
00000270: 27a3 b201 e4d0 62c0 60e5 d022 dbcf 67c0
00000280: 6c69 14e8 b72b 5440 db9d 9159 ac84 5040
00000290: 6874 1aec c124 6c40 51be a9b9 18f8 44c0
000002a0: 9dda 9dcf aab4 6e40 0856 bfba 3db0 5f40
000002b0: c80c 1f2c 757e 3940 92a9 4508 167f 44c0
000002c0: ad41 322f 1873 5ac0 69bf 04cd 9afb 5ec0
000002d0: 5cb9 92b5 2ae5 6cc0 af6c 048f 6ba5 6840
000002e0: 0000 0000 0000 0000 0000 0000 0000 0000
000002f0: 0000 0000 0000 0000 0000 0000 0000 0000
00000300: f67d 1223 9de3 6bc0 6214 61e7 6e37 6cc0
00000310: 8efc 3250 b16e 6ec0 6834 88df cde5 6fc0
